{
  "storage": "unilm_joint.espresso.weights",
  "analyses": {
    "N8Espresso23analysis_debug_metadataE": {
      "path": "",
      "bundle": "",
      "product": "",
      "use_case": "",
      "name": "LOCALHOST-2023-05-01-ANE-quant",
      "version": ""
    }
  },
  "properties": {},
  "format_version": 200,
  "metadata_in_weights": [],
  "layers": [
    {
      "begin_104": 0,
      "begin_63": 0,
      "begin_59": 0,
      "begin_64": 0,
      "begin_105": 0,
      "begin_65": 0,
      "begin_0": 0,
      "begin_70": 0,
      "begin_66": 0,
      "begin_106": 0,
      "begin_110": 0,
      "begin_2": 0,
      "begin_71": 0,
      "begin_67": 0,
      "begin_68": 0,
      "begin_107": 0,
      "begin_111": 0,
      "begin_4": 0,
      "begin_72": 0,
      "begin_73": 0,
      "begin_69": 0,
      "begin_6": 0,
      "begin_74": 0,
      "begin_108": 0,
      "type": "split_nd",
      "begin_8": 0,
      "begin_112": 0,
      "begin_75": 0,
      "begin_10": 0,
      "begin_80": 0,
      "begin_76": 0,
      "begin_109": 0,
      "begin_113": 0,
      "begin_11": 0,
      "nd_axis": -1,
      "begin_81": 0,
      "begin_77": 0,
      "begin_114": 0,
      "begin_12": 0,
      "begin_78": 0,
      "begin_82": 0,
      "begin_13": 0,
      "begin_83": 0,
      "begin_79": 0,
      "begin_115": 0,
      "begin_14": 0,
      "begin_84": 0,
      "begin_15": 0,
      "begin_85": 0,
      "num_splits": 3,
      "begin_116": 0,
      "begin_120": 0,
      "begin_20": 0,
      "begin_86": 0,
      "begin_16": 0,
      "begin_90": 0,
      "begin_21": 0,
      "begin_91": 0,
      "begin_87": 0,
      "begin_17": 0,
      "begin_117": 0,
      "begin_121": 0,
      "begin_18": 0,
      "begin_92": 0,
      "begin_88": 0,
      "begin_22": 0,
      "begin_23": 0,
      "begin_89": 0,
      "begin_19": 0,
      "begin_93": 0,
      "begin_118": 0,
      "begin_122": 0,
      "begin_24": 0,
      "begin_94": 0,
      "begin_25": 0,
      "begin_95": 0,
      "begin_119": 0,
      "begin_123": 0,
      "begin_30": 0,
      "begin_26": 0,
      "begin_96": 0,
      "begin_124": 0,
      "begin_31": 0,
      "begin_97": 0,
      "begin_27": 0,
      "begin_28": 0,
      "begin_98": 0,
      "begin_32": 0,
      "begin_125": 0,
      "begin_33": 0,
      "begin_29": 0,
      "begin_99": 0,
      "begin_1": 0,
      "weights": {},
      "begin_34": 0,
      "bottom": "input",
      "begin_3": 0,
      "begin_126": 0,
      "begin_35": 0,
      "begin_5": 0,
      "begin_36": 0,
      "begin_40": 0,
      "begin_127": 0,
      "name": "16",
      "begin_41": 0,
      "begin_37": 0,
      "begin_7": 0,
      "begin_42": 0,
      "begin_38": 0,
      "begin_9": 0,
      "begin_39": 0,
      "begin_43": 0,
      "begin_44": 0,
      "begin_45": 0,
      "begin_50": 0,
      "begin_46": 0,
      "begin_51": 0,
      "begin_47": 0,
      "begin_100": 0,
      "begin_52": 0,
      "debug_info": "16",
      "begin_48": 0,
      "top": "16_0,16_1,16_2",
      "begin_101": 0,
      "begin_53": 0,
      "begin_49": 0,
      "begin_54": 0,
      "begin_55": 0,
      "begin_102": 0,
      "begin_60": 0,
      "begin_56": 0,
      "begin_103": 0,
      "begin_57": 0,
      "begin_61": 0,
      "begin_62": 0,
      "begin_58": 0
    },
    {
      "nB": 15000,
      "top": "52",
      "has_biases": 0,
      "weights": {
        "Q": 1,
        "Qscale_t": 3,
        "W_t_int8": 5
      },
      "nC": 512,
      "is_lookup": 1,
      "quantization_mode": 2,
      "type": "inner_product",
      "has_relu": 0,
      "bottom": "16_0",
      "debug_info": "",
      "has_tanh": 0,
      "nd_mode": true,
      "name": "52",
      "has_prelu": 0
    },
    {
      "nB": 128,
      "top": "55",
      "has_biases": 0,
      "weights": {
        "Q": 1,
        "Qscale_t": 327,
        "W_t_int8": 329
      },
      "nC": 512,
      "is_lookup": 1,
      "quantization_mode": 2,
      "type": "inner_product",
      "has_relu": 0,
      "bottom": "16_1",
      "debug_info": "",
      "has_tanh": 0,
      "nd_mode": true,
      "name": "55",
      "has_prelu": 0
    },
    {
      "nB": 2,
      "top": "58",
      "has_biases": 0,
      "weights": {
        "Q": 1,
        "Qscale_t": 11,
        "W_t_int8": 13
      },
      "nC": 512,
      "is_lookup": 1,
      "quantization_mode": 2,
      "type": "inner_product",
      "has_relu": 0,
      "bottom": "16_2",
      "debug_info": "",
      "has_tanh": 0,
      "nd_mode": true,
      "name": "58",
      "has_prelu": 0
    },
    {
      "bottom": "52,55",
      "alpha": 1,
      "operation": 0,
      "weights": {},
      "fused_relu": 0,
      "debug_info": "60",
      "top": "60",
      "type": "elementwise",
      "name": "60",
      "beta": 0
    },
    {
      "bottom": "60,58",
      "alpha": 1,
      "operation": 0,
      "weights": {},
      "fused_relu": 0,
      "debug_info": "61",
      "top": "61",
      "type": "elementwise",
      "name": "61",
      "beta": 0
    },
    {
      "axis_seq": 4,
      "top": "transpose_7",
      "name": "transpose_7",
      "axis_n": 3,
      "axis_h": 1,
      "type": "transpose",
      "axis_w": 2,
      "bottom": "61",
      "hint_fallback_from_cpu": 1,
      "axis_k": 0,
      "debug_info": "transpose_7",
      "weights": {}
    },
    {
      "axis_mode": 4,
      "bottom": "transpose_7",
      "weights": {},
      "mode": 1,
      "nd_axis": 1,
      "nd_mode": true,
      "debug_info": "channels_mean.3",
      "use_version": 1,
      "top": "channels_mean.3",
      "type": "reduce",
      "name": "channels_mean.3"
    },
    {
      "alpha": -1,
      "bottom": "channels_mean.3",
      "weights": {},
      "mode": 6,
      "debug_info": "_neg_y_zero_mean.3",
      "top": "_neg_y_zero_mean.3",
      "type": "activation",
      "name": "_neg_y_zero_mean.3",
      "beta": 0
    },
    {
      "bottom": "transpose_7,_neg_y_zero_mean.3",
      "alpha": 0.010416666977107525,
      "operation": 0,
      "weights": {},
      "fused_relu": 0,
      "debug_info": "zero_mean.3",
      "top": "zero_mean.3",
      "type": "elementwise",
      "name": "zero_mean.3",
      "beta": 0
    },
    {
      "bottom": "zero_mean.3,zero_mean.3",
      "alpha": 1,
      "operation": 1,
      "weights": {},
      "fused_relu": 0,
      "debug_info": "zero_mean_sq.3",
      "top": "zero_mean_sq.3",
      "type": "elementwise",
      "name": "zero_mean_sq.3",
      "beta": 0
    },
    {
      "axis_mode": 4,
      "bottom": "zero_mean_sq.3",
      "weights": {},
      "mode": 1,
      "nd_axis": 1,
      "nd_mode": true,
      "debug_info": "89",
      "use_version": 1,
      "top": "89",
      "type": "reduce",
      "name": "89"
    },
    {
      "bottom": "89",
      "alpha": 1.0850693676900391e-09,
      "operation": 0,
      "weights": {},
      "fused_relu": 0,
      "debug_info": "91",
      "top": "91",
      "type": "elementwise",
      "name": "91",
      "beta": 0
    },
    {
      "bottom": "91",
      "alpha": 1,
      "operation": 12,
      "eps": 9.999999960041972e-13,
      "weights": {},
      "fused_relu": 0,
      "debug_info": "denom.3",
      "top": "denom.3",
      "type": "elementwise",
      "name": "denom.3",
      "beta": 0
    },
    {
      "bottom": "zero_mean.3,denom.3",
      "alpha": 1,
      "operation": 1,
      "weights": {},
      "fused_relu": 0,
      "debug_info": "out.3",
      "top": "out.3",
      "type": "elementwise",
      "name": "out.3",
      "beta": 0
    },
    {
      "top": "95",
      "w": 1,
      "h": 1,
      "name": "95",
      "nd_rank": 4,
      "type": "load_constant",
      "k": 512,
      "bottom": "",
      "debug_info": "95",
      "n": 1,
      "weights": {},
      "constant_blob": 871
    },
    {
      "bottom": "out.3,95",
      "alpha": 1,
      "operation": 0,
      "weights": {},
      "fused_relu": 0,
      "debug_info": "96",
      "top": "96",
      "type": "elementwise",
      "name": "96",
      "beta": 0
    },
    {
      "top": "98",
      "w": 1,
      "h": 1,
      "name": "98",
      "nd_rank": 4,
      "type": "load_constant",
      "k": 512,
      "bottom": "",
      "debug_info": "98",
      "n": 1,
      "weights": {},
      "constant_blob": 629
    },
    {
      "bottom": "96,98",
      "alpha": 1,
      "operation": 1,
      "weights": {},
      "fused_relu": 0,
      "debug_info": "k.3",
      "top": "k.3",
      "type": "elementwise",
      "name": "k.3",
      "beta": 0
    },
    {
      "pad_r": 0,
      "fused_relu": 0,
      "fused_tanh": 0,
      "debug_info": "",
      "pad_fill_mode": 0,
      "pad_b": 0,
      "pad_l": 0,
      "top": "113",
      "K": 512,
      "blob_biases": 21,
      "name": "113",
      "has_batch_norm": 0,
      "type": "convolution",
      "n_groups": 1,
      "pad_t": 0,
      "has_biases": 1,
      "C": 512,
      "bottom": "k.3",
      "weights": {
        "per_ch_qscale": 23,
        "W_S8": 19,
        "per_ch_qbias": 295
      },
      "Nx": 1,
      "pad_mode": 0,
      "pad_value": 0,
      "Ny": 1,
      "n_parallel": 1
    },
    {
      "pad_r": 0,
      "fused_relu": 0,
      "fused_tanh": 0,
      "debug_info": "",
      "pad_fill_mode": 0,
      "pad_b": 0,
      "pad_l": 0,
      "top": "k.5",
      "K": 512,
      "blob_biases": 27,
      "name": "k.5",
      "has_batch_norm": 0,
      "type": "convolution",
      "n_groups": 1,
      "pad_t": 0,
      "has_biases": 1,
      "C": 512,
      "bottom": "k.3",
      "weights": {
        "per_ch_qscale": 29,
        "W_S8": 25,
        "per_ch_qbias": 295
      },
      "Nx": 1,
      "pad_mode": 0,
      "pad_value": 0,
      "Ny": 1,
      "n_parallel": 1
    },
    {
      "pad_r": 0,
      "fused_relu": 0,
      "fused_tanh": 0,
      "debug_info": "",
      "pad_fill_mode": 0,
      "pad_b": 0,
      "pad_l": 0,
      "top": "127",
      "K": 512,
      "blob_biases": 33,
      "name": "127",
      "has_batch_norm": 0,
      "type": "convolution",
      "n_groups": 1,
      "pad_t": 0,
      "has_biases": 1,
      "C": 512,
      "bottom": "k.3",
      "weights": {
        "per_ch_qscale": 35,
        "W_S8": 31,
        "per_ch_qbias": 295
      },
      "Nx": 1,
      "pad_mode": 0,
      "pad_value": 0,
      "Ny": 1,
      "n_parallel": 1
    },
    {
      "begin_104": 0,
      "begin_63": 0,
      "begin_59": 0,
      "begin_64": 0,
      "begin_105": 0,
      "begin_65": 0,
      "begin_0": 0,
      "begin_70": 0,
      "begin_66": 0,
      "begin_106": 0,
      "begin_110": 0,
      "begin_2": 0,
      "begin_71": 0,
      "begin_67": 0,
      "begin_68": 0,
      "begin_107": 0,
      "begin_111": 0,
      "begin_4": 0,
      "begin_72": 0,
      "begin_73": 0,
      "begin_69": 0,
      "begin_6": 0,
      "begin_74": 0,
      "begin_108": 0,
      "type": "split_nd",
      "begin_8": 0,
      "begin_112": 0,
      "begin_75": 0,
      "begin_10": 0,
      "begin_80": 0,
      "begin_76": 0,
      "begin_109": 0,
      "begin_113": 0,
      "begin_11": 0,
      "nd_axis": 1,
      "begin_81": 0,
      "begin_77": 0,
      "begin_114": 0,
      "begin_12": 0,
      "begin_78": 0,
      "begin_82": 0,
      "begin_13": 0,
      "begin_83": 0,
      "begin_79": 0,
      "begin_115": 0,
      "begin_14": 0,
      "begin_84": 0,
      "begin_15": 0,
      "begin_85": 0,
      "num_splits": 8,
      "begin_116": 0,
      "begin_120": 0,
      "begin_20": 0,
      "begin_86": 0,
      "begin_16": 0,
      "begin_90": 0,
      "begin_21": 0,
      "begin_91": 0,
      "begin_87": 0,
      "begin_17": 0,
      "begin_117": 0,
      "begin_121": 0,
      "begin_18": 0,
      "begin_92": 0,
      "begin_88": 0,
      "begin_22": 0,
      "begin_23": 0,
      "begin_89": 0,
      "begin_19": 0,
      "begin_93": 0,
      "begin_118": 0,
      "begin_122": 0,
      "begin_24": 0,
      "begin_94": 0,
      "begin_25": 0,
      "begin_95": 0,
      "begin_119": 0,
      "begin_123": 0,
      "begin_30": 0,
      "begin_26": 0,
      "begin_96": 0,
      "begin_124": 0,
      "begin_31": 0,
      "begin_97": 0,
      "begin_27": 0,
      "begin_28": 0,
      "begin_98": 0,
      "begin_32": 0,
      "begin_125": 0,
      "begin_33": 0,
      "begin_29": 0,
      "begin_99": 0,
      "begin_1": 0,
      "weights": {},
      "begin_34": 0,
      "bottom": "113",
      "begin_3": 0,
      "begin_126": 0,
      "begin_35": 0,
      "begin_5": 0,
      "begin_36": 0,
      "begin_40": 0,
      "begin_127": 0,
      "name": "128",
      "begin_41": 0,
      "begin_37": 0,
      "begin_7": 0,
      "begin_42": 0,
      "begin_38": 0,
      "begin_9": 0,
      "begin_39": 0,
      "begin_43": 0,
      "begin_44": 0,
      "begin_45": 0,
      "begin_50": 0,
      "begin_46": 0,
      "begin_51": 0,
      "begin_47": 0,
      "begin_100": 0,
      "begin_52": 0,
      "debug_info": "128",
      "begin_48": 0,
      "top": "128_0,128_1,128_2,128_3,128_4,128_5,128_6,128_7",
      "begin_101": 0,
      "begin_53": 0,
      "begin_49": 0,
      "begin_54": 0,
      "begin_55": 0,
      "begin_102": 0,
      "begin_60": 0,
      "begin_56": 0,
      "begin_103": 0,
      "begin_57": 0,
      "begin_61": 0,
      "begin_62": 0,
      "begin_58": 0
    },
    {
      "axis_h": 1,
      "axis_w": 2,
      "bottom": "k.5",
      "axis_k": 0,
      "axis_n": 3,
      "axis_seq": 4,
      "weights": {},
      "debug_info": "transpose_6",
      "top": "transpose_6",
      "type": "transpose",
      "name": "transpose_6"
    },
    {
      "begin_104": 0,
      "begin_63": 0,
      "begin_59": 0,
      "begin_64": 0,
      "begin_105": 0,
      "begin_65": 0,
      "begin_0": 0,
      "begin_70": 0,
      "begin_66": 0,
      "begin_106": 0,
      "begin_110": 0,
      "begin_2": 0,
      "begin_71": 0,
      "begin_67": 0,
      "begin_68": 0,
      "begin_107": 0,
      "begin_111": 0,
      "begin_4": 0,
      "begin_72": 0,
      "begin_73": 0,
      "begin_69": 0,
      "begin_6": 0,
      "begin_74": 0,
      "begin_108": 0,
      "type": "split_nd",
      "begin_8": 0,
      "begin_112": 0,
      "begin_75": 0,
      "begin_10": 0,
      "begin_80": 0,
      "begin_76": 0,
      "begin_109": 0,
      "begin_113": 0,
      "begin_11": 0,
      "nd_axis": 3,
      "begin_81": 0,
      "begin_77": 0,
      "begin_114": 0,
      "begin_12": 0,
      "begin_78": 0,
      "begin_82": 0,
      "begin_13": 0,
      "begin_83": 0,
      "begin_79": 0,
      "begin_115": 0,
      "begin_14": 0,
      "begin_84": 0,
      "begin_15": 0,
      "begin_85": 0,
      "num_splits": 8,
      "begin_116": 0,
      "begin_120": 0,
      "begin_20": 0,
      "begin_86": 0,
      "begin_16": 0,
      "begin_90": 0,
      "begin_21": 0,
      "begin_91": 0,
      "begin_87": 0,
      "begin_17": 0,
      "begin_117": 0,
      "begin_121": 0,
      "begin_18": 0,
      "begin_92": 0,
      "begin_88": 0,
      "begin_22": 0,
      "begin_23": 0,
      "begin_89": 0,
      "begin_19": 0,
      "begin_93": 0,
      "begin_118": 0,
      "begin_122": 0,
      "begin_24": 0,
      "begin_94": 0,
      "begin_25": 0,
      "begin_95": 0,
      "begin_119": 0,
      "begin_123": 0,
      "begin_30": 0,
      "begin_26": 0,
      "begin_96": 0,
      "begin_124": 0,
      "begin_31": 0,
      "begin_97": 0,
      "begin_27": 0,
      "begin_28": 0,
      "begin_98": 0,
      "begin_32": 0,
      "begin_125": 0,
      "begin_33": 0,
      "begin_29": 0,
      "begin_99": 0,
      "begin_1": 0,
      "weights": {},
      "begin_34": 0,
      "bottom": "transpose_6",
      "begin_3": 0,
      "begin_126": 0,
      "begin_35": 0,
      "begin_5": 0,
      "begin_36": 0,
      "begin_40": 0,
      "begin_127": 0,
      "name": "138",
      "begin_41": 0,
      "begin_37": 0,
      "begin_7": 0,
      "begin_42": 0,
      "begin_38": 0,
      "begin_9": 0,
      "begin_39": 0,
      "begin_43": 0,
      "begin_44": 0,
      "begin_45": 0,
      "begin_50": 0,
      "begin_46": 0,
      "begin_51": 0,
      "begin_47": 0,
      "begin_100": 0,
      "begin_52": 0,
      "debug_info": "138",
      "begin_48": 0,
      "top": "138_0,138_1,138_2,138_3,138_4,138_5,138_6,138_7",
      "begin_101": 0,
      "begin_53": 0,
      "begin_49": 0,
      "begin_54": 0,
      "begin_55": 0,
      "begin_102": 0,
      "begin_60": 0,
      "begin_56": 0,
      "begin_103": 0,
      "begin_57": 0,
      "begin_61": 0,
      "begin_62": 0,
      "begin_58": 0
    },
    {
      "begin_104": 0,
      "begin_63": 0,
      "begin_59": 0,
      "begin_64": 0,
      "begin_105": 0,
      "begin_65": 0,
      "begin_0": 0,
      "begin_70": 0,
      "begin_66": 0,
      "begin_106": 0,
      "begin_110": 0,
      "begin_2": 0,
      "begin_71": 0,
      "begin_67": 0,
      "begin_68": 0,
      "begin_107": 0,
      "begin_111": 0,
      "begin_4": 0,
      "begin_72": 0,
      "begin_73": 0,
      "begin_69": 0,
      "begin_6": 0,
      "begin_74": 0,
      "begin_108": 0,
      "type": "split_nd",
      "begin_8": 0,
      "begin_112": 0,
      "begin_75": 0,
      "begin_10": 0,
      "begin_80": 0,
      "begin_76": 0,
      "begin_109": 0,
      "begin_113": 0,
      "begin_11": 0,
      "nd_axis": 1,
      "begin_81": 0,
      "begin_77": 0,
      "begin_114": 0,
      "begin_12": 0,
      "begin_78": 0,
      "begin_82": 0,
      "begin_13": 0,
      "begin_83": 0,
      "begin_79": 0,
      "begin_115": 0,
      "begin_14": 0,
      "begin_84": 0,
      "begin_15": 0,
      "begin_85": 0,
      "num_splits": 8,
      "begin_116": 0,
      "begin_120": 0,
      "begin_20": 0,
      "begin_86": 0,
      "begin_16": 0,
      "begin_90": 0,
      "begin_21": 0,
      "begin_91": 0,
      "begin_87": 0,
      "begin_17": 0,
      "begin_117": 0,
      "begin_121": 0,
      "begin_18": 0,
      "begin_92": 0,
      "begin_88": 0,
      "begin_22": 0,
      "begin_23": 0,
      "begin_89": 0,
      "begin_19": 0,
      "begin_93": 0,
      "begin_118": 0,
      "begin_122": 0,
      "begin_24": 0,
      "begin_94": 0,
      "begin_25": 0,
      "begin_95": 0,
      "begin_119": 0,
      "begin_123": 0,
      "begin_30": 0,
      "begin_26": 0,
      "begin_96": 0,
      "begin_124": 0,
      "begin_31": 0,
      "begin_97": 0,
      "begin_27": 0,
      "begin_28": 0,
      "begin_98": 0,
      "begin_32": 0,
      "begin_125": 0,
      "begin_33": 0,
      "begin_29": 0,
      "begin_99": 0,
      "begin_1": 0,
      "weights": {},
      "begin_34": 0,
      "bottom": "127",
      "begin_3": 0,
      "begin_126": 0,
      "begin_35": 0,
      "begin_5": 0,
      "begin_36": 0,
      "begin_40": 0,
      "begin_127": 0,
      "name": "147",
      "begin_41": 0,
      "begin_37": 0,
      "begin_7": 0,
      "begin_42": 0,
      "begin_38": 0,
      "begin_9": 0,
      "begin_39": 0,
      "begin_43": 0,
      "begin_44": 0,
      "begin_45": 0,
      "begin_50": 0,
      "begin_46": 0,
      "begin_51": 0,
      "begin_47": 0,
      "begin_100": 0,
      "begin_52": 0,
      "debug_info": "147",
      "begin_48": 0,
      "top": "147_0,147_1,147_2,147_3,147_4,147_5,147_6,147_7",
      "begin_101": 0,
      "begin_53": 0,
      "begin_49": 0,
      "begin_54": 0,
      "begin_55": 0,
      "begin_102": 0,
      "begin_60": 0,
      "begin_56": 0,
      "begin_103": 0,
      "begin_57": 0,
      "begin_61": 0,
      "begin_62": 0,
      "begin_58": 0
    },
    {
      "axis_h": 2,
      "axis_w": 0,
      "bottom": "138_0",
      "axis_k": 1,
      "axis_n": 3,
      "axis_seq": 4,
      "weights": {},
      "debug_info": "157_transpose_x",
      "top": "138_0_transposed",
      "type": "transpose",
      "name": "157_transpose_x"
    },
    {
      "axis_h": 2,
      "axis_w": 0,
      "bottom": "128_0",
      "axis_k": 1,
      "axis_n": 3,
      "axis_seq": 4,
      "weights": {},
      "debug_info": "157_transpose_y",
      "top": "128_0_transposed",
      "type": "transpose",
      "name": "157_transpose_y"
    },
    {
      "bottom": "138_0_transposed,128_0_transposed",
      "weights": {},
      "debug_info": "157_batch_matmul",
      "top": "157_pre_transpose",
      "type": "batch_matmul",
      "name": "157_batch_matmul",
      "channel_mode": false
    },
    {
      "axis_h": 2,
      "axis_w": 0,
      "bottom": "157_pre_transpose",
      "axis_k": 1,
      "axis_n": 3,
      "axis_seq": 4,
      "weights": {},
      "debug_info": "157",
      "top": "157",
      "type": "transpose",
      "name": "157"
    },
    {
      "bottom": "157",
      "alpha": 0.125,
      "operation": 1,
      "weights": {},
      "fused_relu": 0,
      "debug_info": "159",
      "top": "159",
      "type": "elementwise",
      "name": "159",
      "beta": 0
    },
    {
      "axis_h": 2,
      "axis_w": 0,
      "bottom": "138_1",
      "axis_k": 1,
      "axis_n": 3,
      "axis_seq": 4,
      "weights": {},
      "debug_info": "161_transpose_x",
      "top": "138_1_transposed",
      "type": "transpose",
      "name": "161_transpose_x"
    },
    {
      "axis_h": 2,
      "axis_w": 0,
      "bottom": "128_1",
      "axis_k": 1,
      "axis_n": 3,
      "axis_seq": 4,
      "weights": {},
      "debug_info": "161_transpose_y",
      "top": "128_1_transposed",
      "type": "transpose",
      "name": "161_transpose_y"
    },
    {
      "bottom": "138_1_transposed,128_1_transposed",
      "weights": {},
      "debug_info": "161_batch_matmul",
      "top": "161_pre_transpose",
      "type": "batch_matmul",
      "name": "161_batch_matmul",
      "channel_mode": false
    },
    {
      "axis_h": 2,
      "axis_w": 0,
      "bottom": "161_pre_transpose",
      "axis_k": 1,
      "axis_n": 3,
      "axis_seq": 4,
      "weights": {},
      "debug_info": "161",
      "top": "161",
      "type": "transpose",
      "name": "161"
    },
    {
      "bottom": "161",
      "alpha": 0.125,
      "operation": 1,
      "weights": {},
      "fused_relu": 0,
      "debug_info": "163",
      "top": "163",
      "type": "elementwise",
      "name": "163",
      "beta": 0
    },
    {
      "axis_h": 2,
      "axis_w": 0,
      "bottom": "138_2",
      "axis_k": 1,
      "axis_n": 3,
      "axis_seq": 4,
      "weights": {},
      "debug_info": "165_transpose_x",
      "top": "138_2_transposed",
      "type": "transpose",
      "name": "165_transpose_x"
    },
    {
      "axis_h": 2,
      "axis_w": 0,
      "bottom": "128_2",
      "axis_k": 1,
      "axis_n": 3,
      "axis_seq": 4,
      "weights": {},
      "debug_info": "165_transpose_y",
      "top": "128_2_transposed",
      "type": "transpose",
      "name": "165_transpose_y"
    },
    {
      "bottom": "138_2_transposed,128_2_transposed",
      "weights": {},
      "debug_info": "165_batch_matmul",
      "top": "165_pre_transpose",
      "type": "batch_matmul",
      "name": "165_batch_matmul",
      "channel_mode": false
    },
    {
      "axis_h": 2,
      "axis_w": 0,
      "bottom": "165_pre_transpose",
      "axis_k": 1,
      "axis_n": 3,
      "axis_seq": 4,
      "weights": {},
      "debug_info": "165",
      "top": "165",
      "type": "transpose",
      "name": "165"
    },
    {
      "bottom": "165",
      "alpha": 0.125,
      "operation": 1,
      "weights": {},
      "fused_relu": 0,
      "debug_info": "167",
      "top": "167",
      "type": "elementwise",
      "name": "167",
      "beta": 0
    },
    {
      "axis_h": 2,
      "axis_w": 0,
      "bottom": "138_3",
      "axis_k": 1,
      "axis_n": 3,
      "axis_seq": 4,
      "weights": {},
      "debug_info": "169_transpose_x",
      "top": "138_3_transposed",
      "type": "transpose",
      "name": "169_transpose_x"
    },
    {
      "axis_h": 2,
      "axis_w": 0,
      "bottom": "128_3",
      "axis_k": 1,
      "axis_n": 3,
      "axis_seq": 4,
      "weights": {},
      "debug_info": "169_transpose_y",
      "top": "128_3_transposed",
      "type": "transpose",
      "name": "169_transpose_y"
    },
    {
      "bottom": "138_3_transposed,128_3_transposed",
      "weights": {},
      "debug_info": "169_batch_matmul",
      "top": "169_pre_transpose",
      "type": "batch_matmul",
      "name": "169_batch_matmul",
      "channel_mode": false
    },
    {
      "axis_h": 2,
      "axis_w": 0,
      "bottom": "169_pre_transpose",
      "axis_k": 1,
      "axis_n": 3,
      "axis_seq": 4,
      "weights": {},
      "debug_info": "169",
      "top": "169",
      "type": "transpose",
      "name": "169"
    },
    {
      "bottom": "169",
      "alpha": 0.125,
      "operation": 1,
      "weights": {},
      "fused_relu": 0,
      "debug_info": "171",
      "top": "171",
      "type": "elementwise",
      "name": "171",
      "beta": 0
    },
    {
      "axis_h": 2,
      "axis_w": 0,
      "bottom": "138_4",
      "axis_k": 1,
      "axis_n": 3,
      "axis_seq": 4,
      "weights": {},
      "debug_info": "173_transpose_x",
      "top": "138_4_transposed",
      "type": "transpose",
      "name": "173_transpose_x"
    },
    {
      "axis_h": 2,
      "axis_w": 0,
      "bottom": "128_4",
      "axis_k": 1,
      "axis_n": 3,
      "axis_seq": 4,
      "weights": {},
      "debug_info": "173_transpose_y",
      "top": "128_4_transposed",
      "type": "transpose",
      "name": "173_transpose_y"
    },
    {
      "bottom": "138_4_transposed,128_4_transposed",
      "weights": {},
      "debug_info": "173_batch_matmul",
      "top": "173_pre_transpose",
      "type": "batch_matmul",
      "name": "173_batch_matmul",
      "channel_mode": false
    },
    {
      "axis_h": 2,
      "axis_w": 0,
      "bottom": "173_pre_transpose",
      "axis_k": 1,
      "axis_n": 3,
      "axis_seq": 4,
      "weights": {},
      "debug_info": "173",
      "top": "173",
      "type": "transpose",
      "name": "173"
    },
    {
      "bottom": "173",
      "alpha": 0.125,
      "operation": 1,
      "weights": {},
      "fused_relu": 0,
      "debug_info": "175",
      "top": "175",
      "type": "elementwise",
      "name": "175",
      "beta": 0
    },
    {
      "axis_h": 2,
      "axis_w": 0,
      "bottom": "138_5",
      "axis_k": 1,
      "axis_n": 3,
      "axis_seq": 4,
      "weights": {},
      "debug_info": "177_transpose_x",
      "top": "138_5_transposed",
      "type": "transpose",
      "name": "177_transpose_x"
    },
    {
      "axis_h": 2,
      "axis_w": 0,
      "bottom": "128_5",
      "axis_k": 1,
      "axis_n": 3,
      "axis_seq": 4,
      "weights": {},
      "debug_info": "177_transpose_y",
      "top": "128_5_transposed",
      "type": "transpose",
      "name": "177_transpose_y"
    },
    {
      "bottom": "138_5_transposed,128_5_transposed",
      "weights": {},
      "debug_info": "177_batch_matmul",
      "top": "177_pre_transpose",
      "type": "batch_matmul",
      "name": "177_batch_matmul",
      "channel_mode": false
    },
    {
      "axis_h": 2,
      "axis_w": 0,
      "bottom": "177_pre_transpose",
      "axis_k": 1,
      "axis_n": 3,
      "axis_seq": 4,
      "weights": {},
      "debug_info": "177",
      "top": "177",
      "type": "transpose",
      "name": "177"
    },
    {
      "bottom": "177",
      "alpha": 0.125,
      "operation": 1,
      "weights": {},
      "fused_relu": 0,
      "debug_info": "179",
      "top": "179",
      "type": "elementwise",
      "name": "179",
      "beta": 0
    },
    {
      "axis_h": 2,
      "axis_w": 0,
      "bottom": "138_6",
      "axis_k": 1,
      "axis_n": 3,
      "axis_seq": 4,
      "weights": {},
      "debug_info": "181_transpose_x",
      "top": "138_6_transposed",
      "type": "transpose",
      "name": "181_transpose_x"
    },
    {
      "axis_h": 2,
      "axis_w": 0,
      "bottom": "128_6",
      "axis_k": 1,
      "axis_n": 3,
      "axis_seq": 4,
      "weights": {},
      "debug_info": "181_transpose_y",
      "top": "128_6_transposed",
      "type": "transpose",
      "name": "181_transpose_y"
    },
    {
      "bottom": "138_6_transposed,128_6_transposed",
      "weights": {},
      "debug_info": "181_batch_matmul",
      "top": "181_pre_transpose",
      "type": "batch_matmul",
      "name": "181_batch_matmul",
      "channel_mode": false
    },
    {
      "axis_h": 2,
      "axis_w": 0,
      "bottom": "181_pre_transpose",
      "axis_k": 1,
      "axis_n": 3,
      "axis_seq": 4,
      "weights": {},
      "debug_info": "181",
      "top": "181",
      "type": "transpose",
      "name": "181"
    },
    {
      "bottom": "181",
      "alpha": 0.125,
      "operation": 1,
      "weights": {},
      "fused_relu": 0,
      "debug_info": "183",
      "top": "183",
      "type": "elementwise",
      "name": "183",
      "beta": 0
    },
    {
      "axis_h": 2,
      "axis_w": 0,
      "bottom": "138_7",
      "axis_k": 1,
      "axis_n": 3,
      "axis_seq": 4,
      "weights": {},
      "debug_info": "185_transpose_x",
      "top": "138_7_transposed",
      "type": "transpose",
      "name": "185_transpose_x"
    },
    {
      "axis_h": 2,
      "axis_w": 0,
      "bottom": "128_7",
      "axis_k": 1,
      "axis_n": 3,
      "axis_seq": 4,
      "weights": {},
      "debug_info": "185_transpose_y",
      "top": "128_7_transposed",
      "type": "transpose",
      "name": "185_transpose_y"
    },
    {
      "bottom": "138_7_transposed,128_7_transposed",
      "weights": {},
      "debug_info": "185_batch_matmul",
      "top": "185_pre_transpose",
      "type": "batch_matmul",
      "name": "185_batch_matmul",
      "channel_mode": false
    },
    {
      "axis_h": 2,
      "axis_w": 0,
      "bottom": "185_pre_transpose",
      "axis_k": 1,
      "axis_n": 3,
      "axis_seq": 4,
      "weights": {},
      "debug_info": "185",
      "top": "185",
      "type": "transpose",
      "name": "185"
    },
    {
      "bottom": "185",
      "alpha": 0.125,
      "operation": 1,
      "weights": {},
      "fused_relu": 0,
      "debug_info": "187",
      "top": "187",
      "type": "elementwise",
      "name": "187",
      "beta": 0
    },
    {
      "bottom": "159,163,167,171,175,179,183,187",
      "weights": {},
      "nd_mode": true,
      "axis": 2,
      "debug_info": "attn_weights.2",
      "top": "attn_weights.2",
      "type": "general_concat",
      "name": "attn_weights.2"
    },
    {
      "bottom": "qk_mask",
      "alpha": -10000,
      "operation": 1,
      "weights": {},
      "fused_relu": 0,
      "debug_info": "",
      "top": "qk_mask.1",
      "type": "elementwise",
      "name": "qk_mask/scaling",
      "beta": 0
    },
    {
      "bottom": "attn_weights.2,qk_mask.1",
      "alpha": 1,
      "operation": 0,
      "weights": {},
      "fused_relu": 0,
      "debug_info": "attn_weights0.2",
      "nd_mode": true,
      "top": "attn_weights0.2",
      "type": "elementwise",
      "name": "attn_weights0.2",
      "beta": 0
    },
    {
      "bottom": "attn_weights0.2",
      "weights": {},
      "debug_info": "input.5",
      "top": "input.5",
      "C": 2,
      "type": "softmax",
      "name": "input.5"
    },
    {
      "begin_104": 0,
      "begin_63": 0,
      "begin_59": 0,
      "begin_64": 0,
      "begin_105": 0,
      "begin_65": 0,
      "begin_0": 0,
      "begin_70": 0,
      "begin_66": 0,
      "begin_106": 0,
      "begin_110": 0,
      "begin_2": 0,
      "begin_71": 0,
      "begin_67": 0,
      "begin_68": 0,
      "begin_107": 0,
      "begin_111": 0,
      "begin_4": 0,
      "begin_72": 0,
      "begin_73": 0,
      "begin_69": 0,
      "begin_6": 0,
      "begin_74": 0,
      "begin_108": 0,
      "type": "split_nd",
      "begin_8": 0,
      "begin_112": 0,
      "begin_75": 0,
      "begin_10": 0,
      "begin_80": 0,
      "begin_76": 0,
      "begin_109": 0,
      "begin_113": 0,
      "begin_11": 0,
      "nd_axis": 2,
      "begin_81": 0,
      "begin_77": 0,
      "begin_114": 0,
      "begin_12": 0,
      "begin_78": 0,
      "begin_82": 0,
      "begin_13": 0,
      "begin_83": 0,
      "begin_79": 0,
      "begin_115": 0,
      "begin_14": 0,
      "begin_84": 0,
      "begin_15": 0,
      "begin_85": 0,
      "num_splits": 8,
      "begin_116": 0,
      "begin_120": 0,
      "begin_20": 0,
      "begin_86": 0,
      "begin_16": 0,
      "begin_90": 0,
      "begin_21": 0,
      "begin_91": 0,
      "begin_87": 0,
      "begin_17": 0,
      "begin_117": 0,
      "begin_121": 0,
      "begin_18": 0,
      "begin_92": 0,
      "begin_88": 0,
      "begin_22": 0,
      "begin_23": 0,
      "begin_89": 0,
      "begin_19": 0,
      "begin_93": 0,
      "begin_118": 0,
      "begin_122": 0,
      "begin_24": 0,
      "begin_94": 0,
      "begin_25": 0,
      "begin_95": 0,
      "begin_119": 0,
      "begin_123": 0,
      "begin_30": 0,
      "begin_26": 0,
      "begin_96": 0,
      "begin_124": 0,
      "begin_31": 0,
      "begin_97": 0,
      "begin_27": 0,
      "begin_28": 0,
      "begin_98": 0,
      "begin_32": 0,
      "begin_125": 0,
      "begin_33": 0,
      "begin_29": 0,
      "begin_99": 0,
      "begin_1": 0,
      "weights": {},
      "begin_34": 0,
      "bottom": "input.5",
      "begin_3": 0,
      "begin_126": 0,
      "begin_35": 0,
      "begin_5": 0,
      "begin_36": 0,
      "begin_40": 0,
      "begin_127": 0,
      "name": "193",
      "begin_41": 0,
      "begin_37": 0,
      "begin_7": 0,
      "begin_42": 0,
      "begin_38": 0,
      "begin_9": 0,
      "begin_39": 0,
      "begin_43": 0,
      "begin_44": 0,
      "begin_45": 0,
      "begin_50": 0,
      "begin_46": 0,
      "begin_51": 0,
      "begin_47": 0,
      "begin_100": 0,
      "begin_52": 0,
      "debug_info": "193",
      "begin_48": 0,
      "top": "193_0,193_1,193_2,193_3,193_4,193_5,193_6,193_7",
      "begin_101": 0,
      "begin_53": 0,
      "begin_49": 0,
      "begin_54": 0,
      "begin_55": 0,
      "begin_102": 0,
      "begin_60": 0,
      "begin_56": 0,
      "begin_103": 0,
      "begin_57": 0,
      "begin_61": 0,
      "begin_62": 0,
      "begin_58": 0
    },
    {
      "axis_h": 2,
      "axis_w": 0,
      "bottom": "147_0",
      "axis_k": 1,
      "axis_n": 3,
      "axis_seq": 4,
      "weights": {},
      "debug_info": "203_transpose_x",
      "top": "147_0_transposed",
      "type": "transpose",
      "name": "203_transpose_x"
    },
    {
      "axis_h": 2,
      "axis_w": 0,
      "bottom": "193_0",
      "axis_k": 1,
      "axis_n": 3,
      "axis_seq": 4,
      "weights": {},
      "debug_info": "203_transpose_y",
      "top": "193_0_transposed",
      "type": "transpose",
      "name": "203_transpose_y"
    },
    {
      "bottom": "147_0_transposed,193_0_transposed",
      "weights": {},
      "debug_info": "203_batch_matmul",
      "top": "203_pre_transpose",
      "type": "batch_matmul",
      "name": "203_batch_matmul",
      "channel_mode": false
    },
    {
      "axis_h": 2,
      "axis_w": 0,
      "bottom": "203_pre_transpose",
      "axis_k": 1,
      "axis_n": 3,
      "axis_seq": 4,
      "weights": {},
      "debug_info": "203",
      "top": "203",
      "type": "transpose",
      "name": "203"
    },
    {
      "axis_h": 2,
      "axis_w": 0,
      "bottom": "147_1",
      "axis_k": 1,
      "axis_n": 3,
      "axis_seq": 4,
      "weights": {},
      "debug_info": "205_transpose_x",
      "top": "147_1_transposed",
      "type": "transpose",
      "name": "205_transpose_x"
    },
    {
      "axis_h": 2,
      "axis_w": 0,
      "bottom": "193_1",
      "axis_k": 1,
      "axis_n": 3,
      "axis_seq": 4,
      "weights": {},
      "debug_info": "205_transpose_y",
      "top": "193_1_transposed",
      "type": "transpose",
      "name": "205_transpose_y"
    },
    {
      "bottom": "147_1_transposed,193_1_transposed",
      "weights": {},
      "debug_info": "205_batch_matmul",
      "top": "205_pre_transpose",
      "type": "batch_matmul",
      "name": "205_batch_matmul",
      "channel_mode": false
    },
    {
      "axis_h": 2,
      "axis_w": 0,
      "bottom": "205_pre_transpose",
      "axis_k": 1,
      "axis_n": 3,
      "axis_seq": 4,
      "weights": {},
      "debug_info": "205",
      "top": "205",
      "type": "transpose",
      "name": "205"
    },
    {
      "axis_h": 2,
      "axis_w": 0,
      "bottom": "147_2",
      "axis_k": 1,
      "axis_n": 3,
      "axis_seq": 4,
      "weights": {},
      "debug_info": "207_transpose_x",
      "top": "147_2_transposed",
      "type": "transpose",
      "name": "207_transpose_x"
    },
    {
      "axis_h": 2,
      "axis_w": 0,
      "bottom": "193_2",
      "axis_k": 1,
      "axis_n": 3,
      "axis_seq": 4,
      "weights": {},
      "debug_info": "207_transpose_y",
      "top": "193_2_transposed",
      "type": "transpose",
      "name": "207_transpose_y"
    },
    {
      "bottom": "147_2_transposed,193_2_transposed",
      "weights": {},
      "debug_info": "207_batch_matmul",
      "top": "207_pre_transpose",
      "type": "batch_matmul",
      "name": "207_batch_matmul",
      "channel_mode": false
    },
    {
      "axis_h": 2,
      "axis_w": 0,
      "bottom": "207_pre_transpose",
      "axis_k": 1,
      "axis_n": 3,
      "axis_seq": 4,
      "weights": {},
      "debug_info": "207",
      "top": "207",
      "type": "transpose",
      "name": "207"
    },
    {
      "axis_h": 2,
      "axis_w": 0,
      "bottom": "147_3",
      "axis_k": 1,
      "axis_n": 3,
      "axis_seq": 4,
      "weights": {},
      "debug_info": "209_transpose_x",
      "top": "147_3_transposed",
      "type": "transpose",
      "name": "209_transpose_x"
    },
    {
      "axis_h": 2,
      "axis_w": 0,
      "bottom": "193_3",
      "axis_k": 1,
      "axis_n": 3,
      "axis_seq": 4,
      "weights": {},
      "debug_info": "209_transpose_y",
      "top": "193_3_transposed",
      "type": "transpose",
      "name": "209_transpose_y"
    },
    {
      "bottom": "147_3_transposed,193_3_transposed",
      "weights": {},
      "debug_info": "209_batch_matmul",
      "top": "209_pre_transpose",
      "type": "batch_matmul",
      "name": "209_batch_matmul",
      "channel_mode": false
    },
    {
      "axis_h": 2,
      "axis_w": 0,
      "bottom": "209_pre_transpose",
      "axis_k": 1,
      "axis_n": 3,
      "axis_seq": 4,
      "weights": {},
      "debug_info": "209",
      "top": "209",
      "type": "transpose",
      "name": "209"
    },
    {
      "axis_h": 2,
      "axis_w": 0,
      "bottom": "147_4",
      "axis_k": 1,
      "axis_n": 3,
      "axis_seq": 4,
      "weights": {},
      "debug_info": "211_transpose_x",
      "top": "147_4_transposed",
      "type": "transpose",
      "name": "211_transpose_x"
    },
    {
      "axis_h": 2,
      "axis_w": 0,
      "bottom": "193_4",
      "axis_k": 1,
      "axis_n": 3,
      "axis_seq": 4,
      "weights": {},
      "debug_info": "211_transpose_y",
      "top": "193_4_transposed",
      "type": "transpose",
      "name": "211_transpose_y"
    },
    {
      "bottom": "147_4_transposed,193_4_transposed",
      "weights": {},
      "debug_info": "211_batch_matmul",
      "top": "211_pre_transpose",
      "type": "batch_matmul",
      "name": "211_batch_matmul",
      "channel_mode": false
    },
    {
      "axis_h": 2,
      "axis_w": 0,
      "bottom": "211_pre_transpose",
      "axis_k": 1,
      "axis_n": 3,
      "axis_seq": 4,
      "weights": {},
      "debug_info": "211",
      "top": "211",
      "type": "transpose",
      "name": "211"
    },
    {
      "axis_h": 2,
      "axis_w": 0,
      "bottom": "147_5",
      "axis_k": 1,
      "axis_n": 3,
      "axis_seq": 4,
      "weights": {},
      "debug_info": "213_transpose_x",
      "top": "147_5_transposed",
      "type": "transpose",
      "name": "213_transpose_x"
    },
    {
      "axis_h": 2,
      "axis_w": 0,
      "bottom": "193_5",
      "axis_k": 1,
      "axis_n": 3,
      "axis_seq": 4,
      "weights": {},
      "debug_info": "213_transpose_y",
      "top": "193_5_transposed",
      "type": "transpose",
      "name": "213_transpose_y"
    },
    {
      "bottom": "147_5_transposed,193_5_transposed",
      "weights": {},
      "debug_info": "213_batch_matmul",
      "top": "213_pre_transpose",
      "type": "batch_matmul",
      "name": "213_batch_matmul",
      "channel_mode": false
    },
    {
      "axis_h": 2,
      "axis_w": 0,
      "bottom": "213_pre_transpose",
      "axis_k": 1,
      "axis_n": 3,
      "axis_seq": 4,
      "weights": {},
      "debug_info": "213",
      "top": "213",
      "type": "transpose",
      "name": "213"
    },
    {
      "axis_h": 2,
      "axis_w": 0,
      "bottom": "147_6",
      "axis_k": 1,
      "axis_n": 3,
      "axis_seq": 4,
      "weights": {},
      "debug_info": "215_transpose_x",
      "top": "147_6_transposed",
      "type": "transpose",
      "name": "215_transpose_x"
    },
    {
      "axis_h": 2,
      "axis_w": 0,
      "bottom": "193_6",
      "axis_k": 1,
      "axis_n": 3,
      "axis_seq": 4,
      "weights": {},
      "debug_info": "215_transpose_y",
      "top": "193_6_transposed",
      "type": "transpose",
      "name": "215_transpose_y"
    },
    {
      "bottom": "147_6_transposed,193_6_transposed",
      "weights": {},
      "debug_info": "215_batch_matmul",
      "top": "215_pre_transpose",
      "type": "batch_matmul",
      "name": "215_batch_matmul",
      "channel_mode": false
    },
    {
      "axis_h": 2,
      "axis_w": 0,
      "bottom": "215_pre_transpose",
      "axis_k": 1,
      "axis_n": 3,
      "axis_seq": 4,
      "weights": {},
      "debug_info": "215",
      "top": "215",
      "type": "transpose",
      "name": "215"
    },
    {
      "axis_h": 2,
      "axis_w": 0,
      "bottom": "147_7",
      "axis_k": 1,
      "axis_n": 3,
      "axis_seq": 4,
      "weights": {},
      "debug_info": "217_transpose_x",
      "top": "147_7_transposed",
      "type": "transpose",
      "name": "217_transpose_x"
    },
    {
      "axis_h": 2,
      "axis_w": 0,
      "bottom": "193_7",
      "axis_k": 1,
      "axis_n": 3,
      "axis_seq": 4,
      "weights": {},
      "debug_info": "217_transpose_y",
      "top": "193_7_transposed",
      "type": "transpose",
      "name": "217_transpose_y"
    },
    {
      "bottom": "147_7_transposed,193_7_transposed",
      "weights": {},
      "debug_info": "217_batch_matmul",
      "top": "217_pre_transpose",
      "type": "batch_matmul",
      "name": "217_batch_matmul",
      "channel_mode": false
    },
    {
      "axis_h": 2,
      "axis_w": 0,
      "bottom": "217_pre_transpose",
      "axis_k": 1,
      "axis_n": 3,
      "axis_seq": 4,
      "weights": {},
      "debug_info": "217",
      "top": "217",
      "type": "transpose",
      "name": "217"
    },
    {
      "weights": {},
      "debug_info": "attn.5",
      "top": "attn.5",
      "type": "concat",
      "name": "attn.5",
      "bottom": "203,205,207,209,211,213,215,217"
    },
    {
      "pad_r": 0,
      "fused_relu": 0,
      "fused_tanh": 0,
      "debug_info": "",
      "pad_fill_mode": 0,
      "pad_b": 0,
      "pad_l": 0,
      "top": "inputs.5",
      "K": 512,
      "blob_biases": 39,
      "name": "inputs.5",
      "has_batch_norm": 0,
      "type": "convolution",
      "n_groups": 1,
      "pad_t": 0,
      "has_biases": 1,
      "C": 512,
      "bottom": "attn.5",
      "weights": {
        "per_ch_qscale": 41,
        "W_S8": 37,
        "per_ch_qbias": 295
      },
      "Nx": 1,
      "pad_mode": 0,
      "pad_value": 0,
      "Ny": 1,
      "n_parallel": 1
    },
    {
      "axis_mode": 4,
      "bottom": "inputs.5",
      "weights": {},
      "mode": 1,
      "nd_axis": 1,
      "nd_mode": true,
      "debug_info": "channels_mean.5",
      "use_version": 1,
      "top": "channels_mean.5",
      "type": "reduce",
      "name": "channels_mean.5"
    },
    {
      "alpha": -1,
      "bottom": "channels_mean.5",
      "weights": {},
      "mode": 6,
      "debug_info": "_neg_y_zero_mean.5",
      "top": "_neg_y_zero_mean.5",
      "type": "activation",
      "name": "_neg_y_zero_mean.5",
      "beta": 0
    },
    {
      "bottom": "inputs.5,_neg_y_zero_mean.5",
      "alpha": 0.010416666977107525,
      "operation": 0,
      "weights": {},
      "fused_relu": 0,
      "debug_info": "zero_mean.5",
      "top": "zero_mean.5",
      "type": "elementwise",
      "name": "zero_mean.5",
      "beta": 0
    },
    {
      "bottom": "zero_mean.5,zero_mean.5",
      "alpha": 1,
      "operation": 1,
      "weights": {},
      "fused_relu": 0,
      "debug_info": "zero_mean_sq.5",
      "top": "zero_mean_sq.5",
      "type": "elementwise",
      "name": "zero_mean_sq.5",
      "beta": 0
    },
    {
      "axis_mode": 4,
      "bottom": "zero_mean_sq.5",
      "weights": {},
      "mode": 1,
      "nd_axis": 1,
      "nd_mode": true,
      "debug_info": "240",
      "use_version": 1,
      "top": "240",
      "type": "reduce",
      "name": "240"
    },
    {
      "bottom": "240",
      "alpha": 1.0850693676900391e-09,
      "operation": 0,
      "weights": {},
      "fused_relu": 0,
      "debug_info": "242",
      "top": "242",
      "type": "elementwise",
      "name": "242",
      "beta": 0
    },
    {
      "bottom": "242",
      "alpha": 1,
      "operation": 12,
      "eps": 9.999999960041972e-13,
      "weights": {},
      "fused_relu": 0,
      "debug_info": "denom.5",
      "top": "denom.5",
      "type": "elementwise",
      "name": "denom.5",
      "beta": 0
    },
    {
      "bottom": "zero_mean.5,denom.5",
      "alpha": 1,
      "operation": 1,
      "weights": {},
      "fused_relu": 0,
      "debug_info": "out.5",
      "top": "out.5",
      "type": "elementwise",
      "name": "out.5",
      "beta": 0
    },
    {
      "top": "246",
      "w": 1,
      "h": 1,
      "name": "246",
      "nd_rank": 4,
      "type": "load_constant",
      "k": 512,
      "bottom": "",
      "debug_info": "246",
      "n": 1,
      "weights": {},
      "constant_blob": 873
    },
    {
      "bottom": "out.5,246",
      "alpha": 1,
      "operation": 0,
      "weights": {},
      "fused_relu": 0,
      "debug_info": "247",
      "top": "247",
      "type": "elementwise",
      "name": "247",
      "beta": 0
    },
    {
      "top": "249",
      "w": 1,
      "h": 1,
      "name": "249",
      "nd_rank": 4,
      "type": "load_constant",
      "k": 512,
      "bottom": "",
      "debug_info": "249",
      "n": 1,
      "weights": {},
      "constant_blob": 633
    },
    {
      "bottom": "247,249",
      "alpha": 1,
      "operation": 1,
      "weights": {},
      "fused_relu": 0,
      "debug_info": "input.7",
      "top": "input.7",
      "type": "elementwise",
      "name": "input.7",
      "beta": 0
    },
    {
      "pad_r": 0,
      "fused_relu": 0,
      "fused_tanh": 0,
      "debug_info": "",
      "pad_fill_mode": 0,
      "pad_b": 0,
      "pad_l": 0,
      "top": "x.6",
      "K": 512,
      "blob_biases": 637,
      "name": "x.6",
      "has_batch_norm": 0,
      "type": "convolution",
      "n_groups": 1,
      "pad_t": 0,
      "has_biases": 1,
      "C": 256,
      "bottom": "input.7",
      "weights": {
        "per_ch_qscale": 639,
        "W_S8": 635,
        "per_ch_qbias": 875
      },
      "Nx": 1,
      "pad_mode": 0,
      "pad_value": 0,
      "Ny": 1,
      "n_parallel": 1
    },
    {
      "bottom": "x.6",
      "alpha": 1.7020000219345093,
      "operation": 1,
      "weights": {},
      "fused_relu": 0,
      "debug_info": "259",
      "top": "259",
      "type": "elementwise",
      "name": "259",
      "beta": 0
    },
    {
      "bottom": "259",
      "weights": {},
      "mode": 3,
      "debug_info": "260",
      "top": "260",
      "type": "activation",
      "name": "260"
    },
    {
      "bottom": "x.6,260",
      "alpha": 1,
      "operation": 1,
      "weights": {},
      "fused_relu": 0,
      "debug_info": "input.13",
      "top": "input.13",
      "type": "elementwise",
      "name": "input.13",
      "beta": 0
    },
    {
      "pad_r": 0,
      "fused_relu": 0,
      "fused_tanh": 0,
      "debug_info": "",
      "pad_fill_mode": 0,
      "pad_b": 0,
      "pad_l": 0,
      "top": "x.8",
      "K": 256,
      "blob_biases": 643,
      "name": "x.8",
      "has_batch_norm": 0,
      "type": "convolution",
      "n_groups": 1,
      "pad_t": 0,
      "has_biases": 1,
      "C": 512,
      "bottom": "input.13",
      "weights": {
        "per_ch_qscale": 645,
        "W_S8": 641,
        "per_ch_qbias": 295
      },
      "Nx": 1,
      "pad_mode": 0,
      "pad_value": 0,
      "Ny": 1,
      "n_parallel": 1
    },
    {
      "bottom": "x.8,inputs.5",
      "alpha": 1,
      "operation": 0,
      "weights": {},
      "fused_relu": 0,
      "debug_info": "attn.7",
      "top": "attn.7",
      "type": "elementwise",
      "name": "attn.7",
      "beta": 0
    },
    {
      "bottom": "transpose_7,attn.7",
      "alpha": 1,
      "operation": 0,
      "weights": {},
      "fused_relu": 0,
      "debug_info": "inputs.2",
      "top": "inputs.2",
      "type": "elementwise",
      "name": "inputs.2",
      "beta": 0
    },
    {
      "axis_mode": 4,
      "bottom": "inputs.2",
      "weights": {},
      "mode": 1,
      "nd_axis": 1,
      "nd_mode": true,
      "debug_info": "channels_mean.7",
      "use_version": 1,
      "top": "channels_mean.7",
      "type": "reduce",
      "name": "channels_mean.7"
    },
    {
      "alpha": -1,
      "bottom": "channels_mean.7",
      "weights": {},
      "mode": 6,
      "debug_info": "_neg_y_zero_mean.7",
      "top": "_neg_y_zero_mean.7",
      "type": "activation",
      "name": "_neg_y_zero_mean.7",
      "beta": 0
    },
    {
      "bottom": "inputs.2,_neg_y_zero_mean.7",
      "alpha": 0.010416666977107525,
      "operation": 0,
      "weights": {},
      "fused_relu": 0,
      "debug_info": "zero_mean.7",
      "top": "zero_mean.7",
      "type": "elementwise",
      "name": "zero_mean.7",
      "beta": 0
    },
    {
      "bottom": "zero_mean.7,zero_mean.7",
      "alpha": 1,
      "operation": 1,
      "weights": {},
      "fused_relu": 0,
      "debug_info": "zero_mean_sq.7",
      "top": "zero_mean_sq.7",
      "type": "elementwise",
      "name": "zero_mean_sq.7",
      "beta": 0
    },
    {
      "axis_mode": 4,
      "bottom": "zero_mean_sq.7",
      "weights": {},
      "mode": 1,
      "nd_axis": 1,
      "nd_mode": true,
      "debug_info": "278",
      "use_version": 1,
      "top": "278",
      "type": "reduce",
      "name": "278"
    },
    {
      "bottom": "278",
      "alpha": 1.0850693676900391e-09,
      "operation": 0,
      "weights": {},
      "fused_relu": 0,
      "debug_info": "280",
      "top": "280",
      "type": "elementwise",
      "name": "280",
      "beta": 0
    },
    {
      "bottom": "280",
      "alpha": 1,
      "operation": 12,
      "eps": 9.999999960041972e-13,
      "weights": {},
      "fused_relu": 0,
      "debug_info": "denom.7",
      "top": "denom.7",
      "type": "elementwise",
      "name": "denom.7",
      "beta": 0
    },
    {
      "bottom": "zero_mean.7,denom.7",
      "alpha": 1,
      "operation": 1,
      "weights": {},
      "fused_relu": 0,
      "debug_info": "out.7",
      "top": "out.7",
      "type": "elementwise",
      "name": "out.7",
      "beta": 0
    },
    {
      "top": "284",
      "w": 1,
      "h": 1,
      "name": "284",
      "nd_rank": 4,
      "type": "load_constant",
      "k": 512,
      "bottom": "",
      "debug_info": "284",
      "n": 1,
      "weights": {},
      "constant_blob": 877
    },
    {
      "bottom": "out.7,284",
      "alpha": 1,
      "operation": 0,
      "weights": {},
      "fused_relu": 0,
      "debug_info": "285",
      "top": "285",
      "type": "elementwise",
      "name": "285",
      "beta": 0
    },
    {
      "top": "287",
      "w": 1,
      "h": 1,
      "name": "287",
      "nd_rank": 4,
      "type": "load_constant",
      "k": 512,
      "bottom": "",
      "debug_info": "287",
      "n": 1,
      "weights": {},
      "constant_blob": 649
    },
    {
      "bottom": "285,287",
      "alpha": 1,
      "operation": 1,
      "weights": {},
      "fused_relu": 0,
      "debug_info": "input.15",
      "top": "input.15",
      "type": "elementwise",
      "name": "input.15",
      "beta": 0
    },
    {
      "pad_r": 0,
      "fused_relu": 0,
      "fused_tanh": 0,
      "debug_info": "",
      "pad_fill_mode": 0,
      "pad_b": 0,
      "pad_l": 0,
      "top": "x.10",
      "K": 512,
      "blob_biases": 49,
      "name": "x.10",
      "has_batch_norm": 0,
      "type": "convolution",
      "n_groups": 1,
      "pad_t": 0,
      "has_biases": 1,
      "C": 2048,
      "bottom": "input.15",
      "weights": {
        "per_ch_qscale": 51,
        "W_S8": 47,
        "per_ch_qbias": 299
      },
      "Nx": 1,
      "pad_mode": 0,
      "pad_value": 0,
      "Ny": 1,
      "n_parallel": 1
    },
    {
      "bottom": "x.10",
      "alpha": 1.7020000219345093,
      "operation": 1,
      "weights": {},
      "fused_relu": 0,
      "debug_info": "299",
      "top": "299",
      "type": "elementwise",
      "name": "299",
      "beta": 0
    },
    {
      "bottom": "299",
      "weights": {},
      "mode": 3,
      "debug_info": "300",
      "top": "300",
      "type": "activation",
      "name": "300"
    },
    {
      "bottom": "x.10,300",
      "alpha": 1,
      "operation": 1,
      "weights": {},
      "fused_relu": 0,
      "debug_info": "input.17",
      "top": "input.17",
      "type": "elementwise",
      "name": "input.17",
      "beta": 0
    },
    {
      "pad_r": 0,
      "fused_relu": 0,
      "fused_tanh": 0,
      "debug_info": "",
      "pad_fill_mode": 0,
      "pad_b": 0,
      "pad_l": 0,
      "top": "input0.3",
      "K": 2048,
      "blob_biases": 55,
      "name": "input0.3",
      "has_batch_norm": 0,
      "type": "convolution",
      "n_groups": 1,
      "pad_t": 0,
      "has_biases": 1,
      "C": 512,
      "bottom": "input.17",
      "weights": {
        "per_ch_qscale": 57,
        "W_S8": 53,
        "per_ch_qbias": 295
      },
      "Nx": 1,
      "pad_mode": 0,
      "pad_value": 0,
      "Ny": 1,
      "n_parallel": 1
    },
    {
      "axis_mode": 4,
      "bottom": "input0.3",
      "weights": {},
      "mode": 1,
      "nd_axis": 1,
      "nd_mode": true,
      "debug_info": "channels_mean.9",
      "use_version": 1,
      "top": "channels_mean.9",
      "type": "reduce",
      "name": "channels_mean.9"
    },
    {
      "alpha": -1,
      "bottom": "channels_mean.9",
      "weights": {},
      "mode": 6,
      "debug_info": "_neg_y_zero_mean.9",
      "top": "_neg_y_zero_mean.9",
      "type": "activation",
      "name": "_neg_y_zero_mean.9",
      "beta": 0
    },
    {
      "bottom": "input0.3,_neg_y_zero_mean.9",
      "alpha": 0.010416666977107525,
      "operation": 0,
      "weights": {},
      "fused_relu": 0,
      "debug_info": "zero_mean.9",
      "top": "zero_mean.9",
      "type": "elementwise",
      "name": "zero_mean.9",
      "beta": 0
    },
    {
      "bottom": "zero_mean.9,zero_mean.9",
      "alpha": 1,
      "operation": 1,
      "weights": {},
      "fused_relu": 0,
      "debug_info": "zero_mean_sq.9",
      "top": "zero_mean_sq.9",
      "type": "elementwise",
      "name": "zero_mean_sq.9",
      "beta": 0
    },
    {
      "axis_mode": 4,
      "bottom": "zero_mean_sq.9",
      "weights": {},
      "mode": 1,
      "nd_axis": 1,
      "nd_mode": true,
      "debug_info": "320",
      "use_version": 1,
      "top": "320",
      "type": "reduce",
      "name": "320"
    },
    {
      "bottom": "320",
      "alpha": 1.0850693676900391e-09,
      "operation": 0,
      "weights": {},
      "fused_relu": 0,
      "debug_info": "322",
      "top": "322",
      "type": "elementwise",
      "name": "322",
      "beta": 0
    },
    {
      "bottom": "322",
      "alpha": 1,
      "operation": 12,
      "eps": 9.999999960041972e-13,
      "weights": {},
      "fused_relu": 0,
      "debug_info": "denom.9",
      "top": "denom.9",
      "type": "elementwise",
      "name": "denom.9",
      "beta": 0
    },
    {
      "bottom": "zero_mean.9,denom.9",
      "alpha": 1,
      "operation": 1,
      "weights": {},
      "fused_relu": 0,
      "debug_info": "out.9",
      "top": "out.9",
      "type": "elementwise",
      "name": "out.9",
      "beta": 0
    },
    {
      "top": "326",
      "w": 1,
      "h": 1,
      "name": "326",
      "nd_rank": 4,
      "type": "load_constant",
      "k": 512,
      "bottom": "",
      "debug_info": "326",
      "n": 1,
      "weights": {},
      "constant_blob": 879
    },
    {
      "bottom": "out.9,326",
      "alpha": 1,
      "operation": 0,
      "weights": {},
      "fused_relu": 0,
      "debug_info": "327",
      "top": "327",
      "type": "elementwise",
      "name": "327",
      "beta": 0
    },
    {
      "top": "329",
      "w": 1,
      "h": 1,
      "name": "329",
      "nd_rank": 4,
      "type": "load_constant",
      "k": 512,
      "bottom": "",
      "debug_info": "329",
      "n": 1,
      "weights": {},
      "constant_blob": 653
    },
    {
      "bottom": "327,329",
      "alpha": 1,
      "operation": 1,
      "weights": {},
      "fused_relu": 0,
      "debug_info": "input.19",
      "top": "input.19",
      "type": "elementwise",
      "name": "input.19",
      "beta": 0
    },
    {
      "pad_r": 0,
      "fused_relu": 0,
      "fused_tanh": 0,
      "debug_info": "",
      "pad_fill_mode": 0,
      "pad_b": 0,
      "pad_l": 0,
      "top": "x.12",
      "K": 512,
      "blob_biases": 657,
      "name": "x.12",
      "has_batch_norm": 0,
      "type": "convolution",
      "n_groups": 1,
      "pad_t": 0,
      "has_biases": 1,
      "C": 256,
      "bottom": "input.19",
      "weights": {
        "per_ch_qscale": 659,
        "W_S8": 655,
        "per_ch_qbias": 875
      },
      "Nx": 1,
      "pad_mode": 0,
      "pad_value": 0,
      "Ny": 1,
      "n_parallel": 1
    },
    {
      "bottom": "x.12",
      "alpha": 1.7020000219345093,
      "operation": 1,
      "weights": {},
      "fused_relu": 0,
      "debug_info": "339",
      "top": "339",
      "type": "elementwise",
      "name": "339",
      "beta": 0
    },
    {
      "bottom": "339",
      "weights": {},
      "mode": 3,
      "debug_info": "340",
      "top": "340",
      "type": "activation",
      "name": "340"
    },
    {
      "bottom": "x.12,340",
      "alpha": 1,
      "operation": 1,
      "weights": {},
      "fused_relu": 0,
      "debug_info": "input.21",
      "top": "input.21",
      "type": "elementwise",
      "name": "input.21",
      "beta": 0
    },
    {
      "pad_r": 0,
      "fused_relu": 0,
      "fused_tanh": 0,
      "debug_info": "",
      "pad_fill_mode": 0,
      "pad_b": 0,
      "pad_l": 0,
      "top": "x.14",
      "K": 256,
      "blob_biases": 663,
      "name": "x.14",
      "has_batch_norm": 0,
      "type": "convolution",
      "n_groups": 1,
      "pad_t": 0,
      "has_biases": 1,
      "C": 512,
      "bottom": "input.21",
      "weights": {
        "per_ch_qscale": 665,
        "W_S8": 661,
        "per_ch_qbias": 295
      },
      "Nx": 1,
      "pad_mode": 0,
      "pad_value": 0,
      "Ny": 1,
      "n_parallel": 1
    },
    {
      "bottom": "x.14,input0.3",
      "alpha": 1,
      "operation": 0,
      "weights": {},
      "fused_relu": 0,
      "debug_info": "f.2",
      "top": "f.2",
      "type": "elementwise",
      "name": "f.2",
      "beta": 0
    },
    {
      "bottom": "f.2,inputs.2",
      "alpha": 1,
      "operation": 0,
      "weights": {},
      "fused_relu": 0,
      "debug_info": "x1.2",
      "top": "x1.2",
      "type": "elementwise",
      "name": "x1.2",
      "beta": 0
    },
    {
      "bottom": "transpose_7",
      "alpha": 0,
      "operation": 1,
      "weights": {},
      "fused_relu": 0,
      "debug_info": "352",
      "top": "352",
      "type": "elementwise",
      "name": "352",
      "beta": 0
    },
    {
      "bottom": "352,x1.2",
      "alpha": 1,
      "operation": 0,
      "weights": {},
      "fused_relu": 0,
      "debug_info": "inputs.3",
      "top": "inputs.3",
      "type": "elementwise",
      "name": "inputs.3",
      "beta": 0
    },
    {
      "axis_mode": 4,
      "bottom": "inputs.3",
      "weights": {},
      "mode": 1,
      "nd_axis": 1,
      "nd_mode": true,
      "debug_info": "channels_mean.11",
      "use_version": 1,
      "top": "channels_mean.11",
      "type": "reduce",
      "name": "channels_mean.11"
    },
    {
      "alpha": -1,
      "bottom": "channels_mean.11",
      "weights": {},
      "mode": 6,
      "debug_info": "_neg_y_zero_mean.11",
      "top": "_neg_y_zero_mean.11",
      "type": "activation",
      "name": "_neg_y_zero_mean.11",
      "beta": 0
    },
    {
      "bottom": "inputs.3,_neg_y_zero_mean.11",
      "alpha": 0.010416666977107525,
      "operation": 0,
      "weights": {},
      "fused_relu": 0,
      "debug_info": "zero_mean.11",
      "top": "zero_mean.11",
      "type": "elementwise",
      "name": "zero_mean.11",
      "beta": 0
    },
    {
      "bottom": "zero_mean.11,zero_mean.11",
      "alpha": 1,
      "operation": 1,
      "weights": {},
      "fused_relu": 0,
      "debug_info": "zero_mean_sq.11",
      "top": "zero_mean_sq.11",
      "type": "elementwise",
      "name": "zero_mean_sq.11",
      "beta": 0
    },
    {
      "axis_mode": 4,
      "bottom": "zero_mean_sq.11",
      "weights": {},
      "mode": 1,
      "nd_axis": 1,
      "nd_mode": true,
      "debug_info": "369",
      "use_version": 1,
      "top": "369",
      "type": "reduce",
      "name": "369"
    },
    {
      "bottom": "369",
      "alpha": 1.0850693676900391e-09,
      "operation": 0,
      "weights": {},
      "fused_relu": 0,
      "debug_info": "371",
      "top": "371",
      "type": "elementwise",
      "name": "371",
      "beta": 0
    },
    {
      "bottom": "371",
      "alpha": 1,
      "operation": 12,
      "eps": 9.999999960041972e-13,
      "weights": {},
      "fused_relu": 0,
      "debug_info": "denom.11",
      "top": "denom.11",
      "type": "elementwise",
      "name": "denom.11",
      "beta": 0
    },
    {
      "bottom": "zero_mean.11,denom.11",
      "alpha": 1,
      "operation": 1,
      "weights": {},
      "fused_relu": 0,
      "debug_info": "out.11",
      "top": "out.11",
      "type": "elementwise",
      "name": "out.11",
      "beta": 0
    },
    {
      "top": "375",
      "w": 1,
      "h": 1,
      "name": "375",
      "nd_rank": 4,
      "type": "load_constant",
      "k": 512,
      "bottom": "",
      "debug_info": "375",
      "n": 1,
      "weights": {},
      "constant_blob": 881
    },
    {
      "bottom": "out.11,375",
      "alpha": 1,
      "operation": 0,
      "weights": {},
      "fused_relu": 0,
      "debug_info": "376",
      "top": "376",
      "type": "elementwise",
      "name": "376",
      "beta": 0
    },
    {
      "top": "378",
      "w": 1,
      "h": 1,
      "name": "378",
      "nd_rank": 4,
      "type": "load_constant",
      "k": 512,
      "bottom": "",
      "debug_info": "378",
      "n": 1,
      "weights": {},
      "constant_blob": 669
    },
    {
      "bottom": "376,378",
      "alpha": 1,
      "operation": 1,
      "weights": {},
      "fused_relu": 0,
      "debug_info": "k.7",
      "top": "k.7",
      "type": "elementwise",
      "name": "k.7",
      "beta": 0
    },
    {
      "pad_r": 0,
      "fused_relu": 0,
      "fused_tanh": 0,
      "debug_info": "",
      "pad_fill_mode": 0,
      "pad_b": 0,
      "pad_l": 0,
      "top": "393",
      "K": 512,
      "blob_biases": 65,
      "name": "393",
      "has_batch_norm": 0,
      "type": "convolution",
      "n_groups": 1,
      "pad_t": 0,
      "has_biases": 1,
      "C": 512,
      "bottom": "k.7",
      "weights": {
        "per_ch_qscale": 67,
        "W_S8": 63,
        "per_ch_qbias": 295
      },
      "Nx": 1,
      "pad_mode": 0,
      "pad_value": 0,
      "Ny": 1,
      "n_parallel": 1
    },
    {
      "pad_r": 0,
      "fused_relu": 0,
      "fused_tanh": 0,
      "debug_info": "",
      "pad_fill_mode": 0,
      "pad_b": 0,
      "pad_l": 0,
      "top": "k.9",
      "K": 512,
      "blob_biases": 71,
      "name": "k.9",
      "has_batch_norm": 0,
      "type": "convolution",
      "n_groups": 1,
      "pad_t": 0,
      "has_biases": 1,
      "C": 512,
      "bottom": "k.7",
      "weights": {
        "per_ch_qscale": 73,
        "W_S8": 69,
        "per_ch_qbias": 295
      },
      "Nx": 1,
      "pad_mode": 0,
      "pad_value": 0,
      "Ny": 1,
      "n_parallel": 1
    },
    {
      "pad_r": 0,
      "fused_relu": 0,
      "fused_tanh": 0,
      "debug_info": "",
      "pad_fill_mode": 0,
      "pad_b": 0,
      "pad_l": 0,
      "top": "407",
      "K": 512,
      "blob_biases": 77,
      "name": "407",
      "has_batch_norm": 0,
      "type": "convolution",
      "n_groups": 1,
      "pad_t": 0,
      "has_biases": 1,
      "C": 512,
      "bottom": "k.7",
      "weights": {
        "per_ch_qscale": 79,
        "W_S8": 75,
        "per_ch_qbias": 295
      },
      "Nx": 1,
      "pad_mode": 0,
      "pad_value": 0,
      "Ny": 1,
      "n_parallel": 1
    },
    {
      "begin_104": 0,
      "begin_63": 0,
      "begin_59": 0,
      "begin_64": 0,
      "begin_105": 0,
      "begin_65": 0,
      "begin_0": 0,
      "begin_70": 0,
      "begin_66": 0,
      "begin_106": 0,
      "begin_110": 0,
      "begin_2": 0,
      "begin_71": 0,
      "begin_67": 0,
      "begin_68": 0,
      "begin_107": 0,
      "begin_111": 0,
      "begin_4": 0,
      "begin_72": 0,
      "begin_73": 0,
      "begin_69": 0,
      "begin_6": 0,
      "begin_74": 0,
      "begin_108": 0,
      "type": "split_nd",
      "begin_8": 0,
      "begin_112": 0,
      "begin_75": 0,
      "begin_10": 0,
      "begin_80": 0,
      "begin_76": 0,
      "begin_109": 0,
      "begin_113": 0,
      "begin_11": 0,
      "nd_axis": 1,
      "begin_81": 0,
      "begin_77": 0,
      "begin_114": 0,
      "begin_12": 0,
      "begin_78": 0,
      "begin_82": 0,
      "begin_13": 0,
      "begin_83": 0,
      "begin_79": 0,
      "begin_115": 0,
      "begin_14": 0,
      "begin_84": 0,
      "begin_15": 0,
      "begin_85": 0,
      "num_splits": 8,
      "begin_116": 0,
      "begin_120": 0,
      "begin_20": 0,
      "begin_86": 0,
      "begin_16": 0,
      "begin_90": 0,
      "begin_21": 0,
      "begin_91": 0,
      "begin_87": 0,
      "begin_17": 0,
      "begin_117": 0,
      "begin_121": 0,
      "begin_18": 0,
      "begin_92": 0,
      "begin_88": 0,
      "begin_22": 0,
      "begin_23": 0,
      "begin_89": 0,
      "begin_19": 0,
      "begin_93": 0,
      "begin_118": 0,
      "begin_122": 0,
      "begin_24": 0,
      "begin_94": 0,
      "begin_25": 0,
      "begin_95": 0,
      "begin_119": 0,
      "begin_123": 0,
      "begin_30": 0,
      "begin_26": 0,
      "begin_96": 0,
      "begin_124": 0,
      "begin_31": 0,
      "begin_97": 0,
      "begin_27": 0,
      "begin_28": 0,
      "begin_98": 0,
      "begin_32": 0,
      "begin_125": 0,
      "begin_33": 0,
      "begin_29": 0,
      "begin_99": 0,
      "begin_1": 0,
      "weights": {},
      "begin_34": 0,
      "bottom": "393",
      "begin_3": 0,
      "begin_126": 0,
      "begin_35": 0,
      "begin_5": 0,
      "begin_36": 0,
      "begin_40": 0,
      "begin_127": 0,
      "name": "408",
      "begin_41": 0,
      "begin_37": 0,
      "begin_7": 0,
      "begin_42": 0,
      "begin_38": 0,
      "begin_9": 0,
      "begin_39": 0,
      "begin_43": 0,
      "begin_44": 0,
      "begin_45": 0,
      "begin_50": 0,
      "begin_46": 0,
      "begin_51": 0,
      "begin_47": 0,
      "begin_100": 0,
      "begin_52": 0,
      "debug_info": "408",
      "begin_48": 0,
      "top": "408_0,408_1,408_2,408_3,408_4,408_5,408_6,408_7",
      "begin_101": 0,
      "begin_53": 0,
      "begin_49": 0,
      "begin_54": 0,
      "begin_55": 0,
      "begin_102": 0,
      "begin_60": 0,
      "begin_56": 0,
      "begin_103": 0,
      "begin_57": 0,
      "begin_61": 0,
      "begin_62": 0,
      "begin_58": 0
    },
    {
      "axis_h": 1,
      "axis_w": 2,
      "bottom": "k.9",
      "axis_k": 0,
      "axis_n": 3,
      "axis_seq": 4,
      "weights": {},
      "debug_info": "transpose_5",
      "top": "transpose_5",
      "type": "transpose",
      "name": "transpose_5"
    },
    {
      "begin_104": 0,
      "begin_63": 0,
      "begin_59": 0,
      "begin_64": 0,
      "begin_105": 0,
      "begin_65": 0,
      "begin_0": 0,
      "begin_70": 0,
      "begin_66": 0,
      "begin_106": 0,
      "begin_110": 0,
      "begin_2": 0,
      "begin_71": 0,
      "begin_67": 0,
      "begin_68": 0,
      "begin_107": 0,
      "begin_111": 0,
      "begin_4": 0,
      "begin_72": 0,
      "begin_73": 0,
      "begin_69": 0,
      "begin_6": 0,
      "begin_74": 0,
      "begin_108": 0,
      "type": "split_nd",
      "begin_8": 0,
      "begin_112": 0,
      "begin_75": 0,
      "begin_10": 0,
      "begin_80": 0,
      "begin_76": 0,
      "begin_109": 0,
      "begin_113": 0,
      "begin_11": 0,
      "nd_axis": 3,
      "begin_81": 0,
      "begin_77": 0,
      "begin_114": 0,
      "begin_12": 0,
      "begin_78": 0,
      "begin_82": 0,
      "begin_13": 0,
      "begin_83": 0,
      "begin_79": 0,
      "begin_115": 0,
      "begin_14": 0,
      "begin_84": 0,
      "begin_15": 0,
      "begin_85": 0,
      "num_splits": 8,
      "begin_116": 0,
      "begin_120": 0,
      "begin_20": 0,
      "begin_86": 0,
      "begin_16": 0,
      "begin_90": 0,
      "begin_21": 0,
      "begin_91": 0,
      "begin_87": 0,
      "begin_17": 0,
      "begin_117": 0,
      "begin_121": 0,
      "begin_18": 0,
      "begin_92": 0,
      "begin_88": 0,
      "begin_22": 0,
      "begin_23": 0,
      "begin_89": 0,
      "begin_19": 0,
      "begin_93": 0,
      "begin_118": 0,
      "begin_122": 0,
      "begin_24": 0,
      "begin_94": 0,
      "begin_25": 0,
      "begin_95": 0,
      "begin_119": 0,
      "begin_123": 0,
      "begin_30": 0,
      "begin_26": 0,
      "begin_96": 0,
      "begin_124": 0,
      "begin_31": 0,
      "begin_97": 0,
      "begin_27": 0,
      "begin_28": 0,
      "begin_98": 0,
      "begin_32": 0,
      "begin_125": 0,
      "begin_33": 0,
      "begin_29": 0,
      "begin_99": 0,
      "begin_1": 0,
      "weights": {},
      "begin_34": 0,
      "bottom": "transpose_5",
      "begin_3": 0,
      "begin_126": 0,
      "begin_35": 0,
      "begin_5": 0,
      "begin_36": 0,
      "begin_40": 0,
      "begin_127": 0,
      "name": "418",
      "begin_41": 0,
      "begin_37": 0,
      "begin_7": 0,
      "begin_42": 0,
      "begin_38": 0,
      "begin_9": 0,
      "begin_39": 0,
      "begin_43": 0,
      "begin_44": 0,
      "begin_45": 0,
      "begin_50": 0,
      "begin_46": 0,
      "begin_51": 0,
      "begin_47": 0,
      "begin_100": 0,
      "begin_52": 0,
      "debug_info": "418",
      "begin_48": 0,
      "top": "418_0,418_1,418_2,418_3,418_4,418_5,418_6,418_7",
      "begin_101": 0,
      "begin_53": 0,
      "begin_49": 0,
      "begin_54": 0,
      "begin_55": 0,
      "begin_102": 0,
      "begin_60": 0,
      "begin_56": 0,
      "begin_103": 0,
      "begin_57": 0,
      "begin_61": 0,
      "begin_62": 0,
      "begin_58": 0
    },
    {
      "begin_104": 0,
      "begin_63": 0,
      "begin_59": 0,
      "begin_64": 0,
      "begin_105": 0,
      "begin_65": 0,
      "begin_0": 0,
      "begin_70": 0,
      "begin_66": 0,
      "begin_106": 0,
      "begin_110": 0,
      "begin_2": 0,
      "begin_71": 0,
      "begin_67": 0,
      "begin_68": 0,
      "begin_107": 0,
      "begin_111": 0,
      "begin_4": 0,
      "begin_72": 0,
      "begin_73": 0,
      "begin_69": 0,
      "begin_6": 0,
      "begin_74": 0,
      "begin_108": 0,
      "type": "split_nd",
      "begin_8": 0,
      "begin_112": 0,
      "begin_75": 0,
      "begin_10": 0,
      "begin_80": 0,
      "begin_76": 0,
      "begin_109": 0,
      "begin_113": 0,
      "begin_11": 0,
      "nd_axis": 1,
      "begin_81": 0,
      "begin_77": 0,
      "begin_114": 0,
      "begin_12": 0,
      "begin_78": 0,
      "begin_82": 0,
      "begin_13": 0,
      "begin_83": 0,
      "begin_79": 0,
      "begin_115": 0,
      "begin_14": 0,
      "begin_84": 0,
      "begin_15": 0,
      "begin_85": 0,
      "num_splits": 8,
      "begin_116": 0,
      "begin_120": 0,
      "begin_20": 0,
      "begin_86": 0,
      "begin_16": 0,
      "begin_90": 0,
      "begin_21": 0,
      "begin_91": 0,
      "begin_87": 0,
      "begin_17": 0,
      "begin_117": 0,
      "begin_121": 0,
      "begin_18": 0,
      "begin_92": 0,
      "begin_88": 0,
      "begin_22": 0,
      "begin_23": 0,
      "begin_89": 0,
      "begin_19": 0,
      "begin_93": 0,
      "begin_118": 0,
      "begin_122": 0,
      "begin_24": 0,
      "begin_94": 0,
      "begin_25": 0,
      "begin_95": 0,
      "begin_119": 0,
      "begin_123": 0,
      "begin_30": 0,
      "begin_26": 0,
      "begin_96": 0,
      "begin_124": 0,
      "begin_31": 0,
      "begin_97": 0,
      "begin_27": 0,
      "begin_28": 0,
      "begin_98": 0,
      "begin_32": 0,
      "begin_125": 0,
      "begin_33": 0,
      "begin_29": 0,
      "begin_99": 0,
      "begin_1": 0,
      "weights": {},
      "begin_34": 0,
      "bottom": "407",
      "begin_3": 0,
      "begin_126": 0,
      "begin_35": 0,
      "begin_5": 0,
      "begin_36": 0,
      "begin_40": 0,
      "begin_127": 0,
      "name": "427",
      "begin_41": 0,
      "begin_37": 0,
      "begin_7": 0,
      "begin_42": 0,
      "begin_38": 0,
      "begin_9": 0,
      "begin_39": 0,
      "begin_43": 0,
      "begin_44": 0,
      "begin_45": 0,
      "begin_50": 0,
      "begin_46": 0,
      "begin_51": 0,
      "begin_47": 0,
      "begin_100": 0,
      "begin_52": 0,
      "debug_info": "427",
      "begin_48": 0,
      "top": "427_0,427_1,427_2,427_3,427_4,427_5,427_6,427_7",
      "begin_101": 0,
      "begin_53": 0,
      "begin_49": 0,
      "begin_54": 0,
      "begin_55": 0,
      "begin_102": 0,
      "begin_60": 0,
      "begin_56": 0,
      "begin_103": 0,
      "begin_57": 0,
      "begin_61": 0,
      "begin_62": 0,
      "begin_58": 0
    },
    {
      "axis_h": 2,
      "axis_w": 0,
      "bottom": "418_0",
      "axis_k": 1,
      "axis_n": 3,
      "axis_seq": 4,
      "weights": {},
      "debug_info": "437_transpose_x",
      "top": "418_0_transposed",
      "type": "transpose",
      "name": "437_transpose_x"
    },
    {
      "axis_h": 2,
      "axis_w": 0,
      "bottom": "408_0",
      "axis_k": 1,
      "axis_n": 3,
      "axis_seq": 4,
      "weights": {},
      "debug_info": "437_transpose_y",
      "top": "408_0_transposed",
      "type": "transpose",
      "name": "437_transpose_y"
    },
    {
      "bottom": "418_0_transposed,408_0_transposed",
      "weights": {},
      "debug_info": "437_batch_matmul",
      "top": "437_pre_transpose",
      "type": "batch_matmul",
      "name": "437_batch_matmul",
      "channel_mode": false
    },
    {
      "axis_h": 2,
      "axis_w": 0,
      "bottom": "437_pre_transpose",
      "axis_k": 1,
      "axis_n": 3,
      "axis_seq": 4,
      "weights": {},
      "debug_info": "437",
      "top": "437",
      "type": "transpose",
      "name": "437"
    },
    {
      "bottom": "437",
      "alpha": 0.125,
      "operation": 1,
      "weights": {},
      "fused_relu": 0,
      "debug_info": "439",
      "top": "439",
      "type": "elementwise",
      "name": "439",
      "beta": 0
    },
    {
      "axis_h": 2,
      "axis_w": 0,
      "bottom": "418_1",
      "axis_k": 1,
      "axis_n": 3,
      "axis_seq": 4,
      "weights": {},
      "debug_info": "441_transpose_x",
      "top": "418_1_transposed",
      "type": "transpose",
      "name": "441_transpose_x"
    },
    {
      "axis_h": 2,
      "axis_w": 0,
      "bottom": "408_1",
      "axis_k": 1,
      "axis_n": 3,
      "axis_seq": 4,
      "weights": {},
      "debug_info": "441_transpose_y",
      "top": "408_1_transposed",
      "type": "transpose",
      "name": "441_transpose_y"
    },
    {
      "bottom": "418_1_transposed,408_1_transposed",
      "weights": {},
      "debug_info": "441_batch_matmul",
      "top": "441_pre_transpose",
      "type": "batch_matmul",
      "name": "441_batch_matmul",
      "channel_mode": false
    },
    {
      "axis_h": 2,
      "axis_w": 0,
      "bottom": "441_pre_transpose",
      "axis_k": 1,
      "axis_n": 3,
      "axis_seq": 4,
      "weights": {},
      "debug_info": "441",
      "top": "441",
      "type": "transpose",
      "name": "441"
    },
    {
      "bottom": "441",
      "alpha": 0.125,
      "operation": 1,
      "weights": {},
      "fused_relu": 0,
      "debug_info": "443",
      "top": "443",
      "type": "elementwise",
      "name": "443",
      "beta": 0
    },
    {
      "axis_h": 2,
      "axis_w": 0,
      "bottom": "418_2",
      "axis_k": 1,
      "axis_n": 3,
      "axis_seq": 4,
      "weights": {},
      "debug_info": "445_transpose_x",
      "top": "418_2_transposed",
      "type": "transpose",
      "name": "445_transpose_x"
    },
    {
      "axis_h": 2,
      "axis_w": 0,
      "bottom": "408_2",
      "axis_k": 1,
      "axis_n": 3,
      "axis_seq": 4,
      "weights": {},
      "debug_info": "445_transpose_y",
      "top": "408_2_transposed",
      "type": "transpose",
      "name": "445_transpose_y"
    },
    {
      "bottom": "418_2_transposed,408_2_transposed",
      "weights": {},
      "debug_info": "445_batch_matmul",
      "top": "445_pre_transpose",
      "type": "batch_matmul",
      "name": "445_batch_matmul",
      "channel_mode": false
    },
    {
      "axis_h": 2,
      "axis_w": 0,
      "bottom": "445_pre_transpose",
      "axis_k": 1,
      "axis_n": 3,
      "axis_seq": 4,
      "weights": {},
      "debug_info": "445",
      "top": "445",
      "type": "transpose",
      "name": "445"
    },
    {
      "bottom": "445",
      "alpha": 0.125,
      "operation": 1,
      "weights": {},
      "fused_relu": 0,
      "debug_info": "447",
      "top": "447",
      "type": "elementwise",
      "name": "447",
      "beta": 0
    },
    {
      "axis_h": 2,
      "axis_w": 0,
      "bottom": "418_3",
      "axis_k": 1,
      "axis_n": 3,
      "axis_seq": 4,
      "weights": {},
      "debug_info": "449_transpose_x",
      "top": "418_3_transposed",
      "type": "transpose",
      "name": "449_transpose_x"
    },
    {
      "axis_h": 2,
      "axis_w": 0,
      "bottom": "408_3",
      "axis_k": 1,
      "axis_n": 3,
      "axis_seq": 4,
      "weights": {},
      "debug_info": "449_transpose_y",
      "top": "408_3_transposed",
      "type": "transpose",
      "name": "449_transpose_y"
    },
    {
      "bottom": "418_3_transposed,408_3_transposed",
      "weights": {},
      "debug_info": "449_batch_matmul",
      "top": "449_pre_transpose",
      "type": "batch_matmul",
      "name": "449_batch_matmul",
      "channel_mode": false
    },
    {
      "axis_h": 2,
      "axis_w": 0,
      "bottom": "449_pre_transpose",
      "axis_k": 1,
      "axis_n": 3,
      "axis_seq": 4,
      "weights": {},
      "debug_info": "449",
      "top": "449",
      "type": "transpose",
      "name": "449"
    },
    {
      "bottom": "449",
      "alpha": 0.125,
      "operation": 1,
      "weights": {},
      "fused_relu": 0,
      "debug_info": "451",
      "top": "451",
      "type": "elementwise",
      "name": "451",
      "beta": 0
    },
    {
      "axis_h": 2,
      "axis_w": 0,
      "bottom": "418_4",
      "axis_k": 1,
      "axis_n": 3,
      "axis_seq": 4,
      "weights": {},
      "debug_info": "453_transpose_x",
      "top": "418_4_transposed",
      "type": "transpose",
      "name": "453_transpose_x"
    },
    {
      "axis_h": 2,
      "axis_w": 0,
      "bottom": "408_4",
      "axis_k": 1,
      "axis_n": 3,
      "axis_seq": 4,
      "weights": {},
      "debug_info": "453_transpose_y",
      "top": "408_4_transposed",
      "type": "transpose",
      "name": "453_transpose_y"
    },
    {
      "bottom": "418_4_transposed,408_4_transposed",
      "weights": {},
      "debug_info": "453_batch_matmul",
      "top": "453_pre_transpose",
      "type": "batch_matmul",
      "name": "453_batch_matmul",
      "channel_mode": false
    },
    {
      "axis_h": 2,
      "axis_w": 0,
      "bottom": "453_pre_transpose",
      "axis_k": 1,
      "axis_n": 3,
      "axis_seq": 4,
      "weights": {},
      "debug_info": "453",
      "top": "453",
      "type": "transpose",
      "name": "453"
    },
    {
      "bottom": "453",
      "alpha": 0.125,
      "operation": 1,
      "weights": {},
      "fused_relu": 0,
      "debug_info": "455",
      "top": "455",
      "type": "elementwise",
      "name": "455",
      "beta": 0
    },
    {
      "axis_h": 2,
      "axis_w": 0,
      "bottom": "418_5",
      "axis_k": 1,
      "axis_n": 3,
      "axis_seq": 4,
      "weights": {},
      "debug_info": "457_transpose_x",
      "top": "418_5_transposed",
      "type": "transpose",
      "name": "457_transpose_x"
    },
    {
      "axis_h": 2,
      "axis_w": 0,
      "bottom": "408_5",
      "axis_k": 1,
      "axis_n": 3,
      "axis_seq": 4,
      "weights": {},
      "debug_info": "457_transpose_y",
      "top": "408_5_transposed",
      "type": "transpose",
      "name": "457_transpose_y"
    },
    {
      "bottom": "418_5_transposed,408_5_transposed",
      "weights": {},
      "debug_info": "457_batch_matmul",
      "top": "457_pre_transpose",
      "type": "batch_matmul",
      "name": "457_batch_matmul",
      "channel_mode": false
    },
    {
      "axis_h": 2,
      "axis_w": 0,
      "bottom": "457_pre_transpose",
      "axis_k": 1,
      "axis_n": 3,
      "axis_seq": 4,
      "weights": {},
      "debug_info": "457",
      "top": "457",
      "type": "transpose",
      "name": "457"
    },
    {
      "bottom": "457",
      "alpha": 0.125,
      "operation": 1,
      "weights": {},
      "fused_relu": 0,
      "debug_info": "459",
      "top": "459",
      "type": "elementwise",
      "name": "459",
      "beta": 0
    },
    {
      "axis_h": 2,
      "axis_w": 0,
      "bottom": "418_6",
      "axis_k": 1,
      "axis_n": 3,
      "axis_seq": 4,
      "weights": {},
      "debug_info": "461_transpose_x",
      "top": "418_6_transposed",
      "type": "transpose",
      "name": "461_transpose_x"
    },
    {
      "axis_h": 2,
      "axis_w": 0,
      "bottom": "408_6",
      "axis_k": 1,
      "axis_n": 3,
      "axis_seq": 4,
      "weights": {},
      "debug_info": "461_transpose_y",
      "top": "408_6_transposed",
      "type": "transpose",
      "name": "461_transpose_y"
    },
    {
      "bottom": "418_6_transposed,408_6_transposed",
      "weights": {},
      "debug_info": "461_batch_matmul",
      "top": "461_pre_transpose",
      "type": "batch_matmul",
      "name": "461_batch_matmul",
      "channel_mode": false
    },
    {
      "axis_h": 2,
      "axis_w": 0,
      "bottom": "461_pre_transpose",
      "axis_k": 1,
      "axis_n": 3,
      "axis_seq": 4,
      "weights": {},
      "debug_info": "461",
      "top": "461",
      "type": "transpose",
      "name": "461"
    },
    {
      "bottom": "461",
      "alpha": 0.125,
      "operation": 1,
      "weights": {},
      "fused_relu": 0,
      "debug_info": "463",
      "top": "463",
      "type": "elementwise",
      "name": "463",
      "beta": 0
    },
    {
      "axis_h": 2,
      "axis_w": 0,
      "bottom": "418_7",
      "axis_k": 1,
      "axis_n": 3,
      "axis_seq": 4,
      "weights": {},
      "debug_info": "465_transpose_x",
      "top": "418_7_transposed",
      "type": "transpose",
      "name": "465_transpose_x"
    },
    {
      "axis_h": 2,
      "axis_w": 0,
      "bottom": "408_7",
      "axis_k": 1,
      "axis_n": 3,
      "axis_seq": 4,
      "weights": {},
      "debug_info": "465_transpose_y",
      "top": "408_7_transposed",
      "type": "transpose",
      "name": "465_transpose_y"
    },
    {
      "bottom": "418_7_transposed,408_7_transposed",
      "weights": {},
      "debug_info": "465_batch_matmul",
      "top": "465_pre_transpose",
      "type": "batch_matmul",
      "name": "465_batch_matmul",
      "channel_mode": false
    },
    {
      "axis_h": 2,
      "axis_w": 0,
      "bottom": "465_pre_transpose",
      "axis_k": 1,
      "axis_n": 3,
      "axis_seq": 4,
      "weights": {},
      "debug_info": "465",
      "top": "465",
      "type": "transpose",
      "name": "465"
    },
    {
      "bottom": "465",
      "alpha": 0.125,
      "operation": 1,
      "weights": {},
      "fused_relu": 0,
      "debug_info": "467",
      "top": "467",
      "type": "elementwise",
      "name": "467",
      "beta": 0
    },
    {
      "bottom": "439,443,447,451,455,459,463,467",
      "weights": {},
      "nd_mode": true,
      "axis": 2,
      "debug_info": "attn_weights.4",
      "top": "attn_weights.4",
      "type": "general_concat",
      "name": "attn_weights.4"
    },
    {
      "bottom": "attn_weights.4,qk_mask.1",
      "alpha": 1,
      "operation": 0,
      "weights": {},
      "fused_relu": 0,
      "debug_info": "attn_weights0.4",
      "nd_mode": true,
      "top": "attn_weights0.4",
      "type": "elementwise",
      "name": "attn_weights0.4",
      "beta": 0
    },
    {
      "bottom": "attn_weights0.4",
      "weights": {},
      "debug_info": "input.23",
      "top": "input.23",
      "C": 2,
      "type": "softmax",
      "name": "input.23"
    },
    {
      "begin_104": 0,
      "begin_63": 0,
      "begin_59": 0,
      "begin_64": 0,
      "begin_105": 0,
      "begin_65": 0,
      "begin_0": 0,
      "begin_70": 0,
      "begin_66": 0,
      "begin_106": 0,
      "begin_110": 0,
      "begin_2": 0,
      "begin_71": 0,
      "begin_67": 0,
      "begin_68": 0,
      "begin_107": 0,
      "begin_111": 0,
      "begin_4": 0,
      "begin_72": 0,
      "begin_73": 0,
      "begin_69": 0,
      "begin_6": 0,
      "begin_74": 0,
      "begin_108": 0,
      "type": "split_nd",
      "begin_8": 0,
      "begin_112": 0,
      "begin_75": 0,
      "begin_10": 0,
      "begin_80": 0,
      "begin_76": 0,
      "begin_109": 0,
      "begin_113": 0,
      "begin_11": 0,
      "nd_axis": 2,
      "begin_81": 0,
      "begin_77": 0,
      "begin_114": 0,
      "begin_12": 0,
      "begin_78": 0,
      "begin_82": 0,
      "begin_13": 0,
      "begin_83": 0,
      "begin_79": 0,
      "begin_115": 0,
      "begin_14": 0,
      "begin_84": 0,
      "begin_15": 0,
      "begin_85": 0,
      "num_splits": 8,
      "begin_116": 0,
      "begin_120": 0,
      "begin_20": 0,
      "begin_86": 0,
      "begin_16": 0,
      "begin_90": 0,
      "begin_21": 0,
      "begin_91": 0,
      "begin_87": 0,
      "begin_17": 0,
      "begin_117": 0,
      "begin_121": 0,
      "begin_18": 0,
      "begin_92": 0,
      "begin_88": 0,
      "begin_22": 0,
      "begin_23": 0,
      "begin_89": 0,
      "begin_19": 0,
      "begin_93": 0,
      "begin_118": 0,
      "begin_122": 0,
      "begin_24": 0,
      "begin_94": 0,
      "begin_25": 0,
      "begin_95": 0,
      "begin_119": 0,
      "begin_123": 0,
      "begin_30": 0,
      "begin_26": 0,
      "begin_96": 0,
      "begin_124": 0,
      "begin_31": 0,
      "begin_97": 0,
      "begin_27": 0,
      "begin_28": 0,
      "begin_98": 0,
      "begin_32": 0,
      "begin_125": 0,
      "begin_33": 0,
      "begin_29": 0,
      "begin_99": 0,
      "begin_1": 0,
      "weights": {},
      "begin_34": 0,
      "bottom": "input.23",
      "begin_3": 0,
      "begin_126": 0,
      "begin_35": 0,
      "begin_5": 0,
      "begin_36": 0,
      "begin_40": 0,
      "begin_127": 0,
      "name": "473",
      "begin_41": 0,
      "begin_37": 0,
      "begin_7": 0,
      "begin_42": 0,
      "begin_38": 0,
      "begin_9": 0,
      "begin_39": 0,
      "begin_43": 0,
      "begin_44": 0,
      "begin_45": 0,
      "begin_50": 0,
      "begin_46": 0,
      "begin_51": 0,
      "begin_47": 0,
      "begin_100": 0,
      "begin_52": 0,
      "debug_info": "473",
      "begin_48": 0,
      "top": "473_0,473_1,473_2,473_3,473_4,473_5,473_6,473_7",
      "begin_101": 0,
      "begin_53": 0,
      "begin_49": 0,
      "begin_54": 0,
      "begin_55": 0,
      "begin_102": 0,
      "begin_60": 0,
      "begin_56": 0,
      "begin_103": 0,
      "begin_57": 0,
      "begin_61": 0,
      "begin_62": 0,
      "begin_58": 0
    },
    {
      "axis_h": 2,
      "axis_w": 0,
      "bottom": "427_0",
      "axis_k": 1,
      "axis_n": 3,
      "axis_seq": 4,
      "weights": {},
      "debug_info": "483_transpose_x",
      "top": "427_0_transposed",
      "type": "transpose",
      "name": "483_transpose_x"
    },
    {
      "axis_h": 2,
      "axis_w": 0,
      "bottom": "473_0",
      "axis_k": 1,
      "axis_n": 3,
      "axis_seq": 4,
      "weights": {},
      "debug_info": "483_transpose_y",
      "top": "473_0_transposed",
      "type": "transpose",
      "name": "483_transpose_y"
    },
    {
      "bottom": "427_0_transposed,473_0_transposed",
      "weights": {},
      "debug_info": "483_batch_matmul",
      "top": "483_pre_transpose",
      "type": "batch_matmul",
      "name": "483_batch_matmul",
      "channel_mode": false
    },
    {
      "axis_h": 2,
      "axis_w": 0,
      "bottom": "483_pre_transpose",
      "axis_k": 1,
      "axis_n": 3,
      "axis_seq": 4,
      "weights": {},
      "debug_info": "483",
      "top": "483",
      "type": "transpose",
      "name": "483"
    },
    {
      "axis_h": 2,
      "axis_w": 0,
      "bottom": "427_1",
      "axis_k": 1,
      "axis_n": 3,
      "axis_seq": 4,
      "weights": {},
      "debug_info": "485_transpose_x",
      "top": "427_1_transposed",
      "type": "transpose",
      "name": "485_transpose_x"
    },
    {
      "axis_h": 2,
      "axis_w": 0,
      "bottom": "473_1",
      "axis_k": 1,
      "axis_n": 3,
      "axis_seq": 4,
      "weights": {},
      "debug_info": "485_transpose_y",
      "top": "473_1_transposed",
      "type": "transpose",
      "name": "485_transpose_y"
    },
    {
      "bottom": "427_1_transposed,473_1_transposed",
      "weights": {},
      "debug_info": "485_batch_matmul",
      "top": "485_pre_transpose",
      "type": "batch_matmul",
      "name": "485_batch_matmul",
      "channel_mode": false
    },
    {
      "axis_h": 2,
      "axis_w": 0,
      "bottom": "485_pre_transpose",
      "axis_k": 1,
      "axis_n": 3,
      "axis_seq": 4,
      "weights": {},
      "debug_info": "485",
      "top": "485",
      "type": "transpose",
      "name": "485"
    },
    {
      "axis_h": 2,
      "axis_w": 0,
      "bottom": "427_2",
      "axis_k": 1,
      "axis_n": 3,
      "axis_seq": 4,
      "weights": {},
      "debug_info": "487_transpose_x",
      "top": "427_2_transposed",
      "type": "transpose",
      "name": "487_transpose_x"
    },
    {
      "axis_h": 2,
      "axis_w": 0,
      "bottom": "473_2",
      "axis_k": 1,
      "axis_n": 3,
      "axis_seq": 4,
      "weights": {},
      "debug_info": "487_transpose_y",
      "top": "473_2_transposed",
      "type": "transpose",
      "name": "487_transpose_y"
    },
    {
      "bottom": "427_2_transposed,473_2_transposed",
      "weights": {},
      "debug_info": "487_batch_matmul",
      "top": "487_pre_transpose",
      "type": "batch_matmul",
      "name": "487_batch_matmul",
      "channel_mode": false
    },
    {
      "axis_h": 2,
      "axis_w": 0,
      "bottom": "487_pre_transpose",
      "axis_k": 1,
      "axis_n": 3,
      "axis_seq": 4,
      "weights": {},
      "debug_info": "487",
      "top": "487",
      "type": "transpose",
      "name": "487"
    },
    {
      "axis_h": 2,
      "axis_w": 0,
      "bottom": "427_3",
      "axis_k": 1,
      "axis_n": 3,
      "axis_seq": 4,
      "weights": {},
      "debug_info": "489_transpose_x",
      "top": "427_3_transposed",
      "type": "transpose",
      "name": "489_transpose_x"
    },
    {
      "axis_h": 2,
      "axis_w": 0,
      "bottom": "473_3",
      "axis_k": 1,
      "axis_n": 3,
      "axis_seq": 4,
      "weights": {},
      "debug_info": "489_transpose_y",
      "top": "473_3_transposed",
      "type": "transpose",
      "name": "489_transpose_y"
    },
    {
      "bottom": "427_3_transposed,473_3_transposed",
      "weights": {},
      "debug_info": "489_batch_matmul",
      "top": "489_pre_transpose",
      "type": "batch_matmul",
      "name": "489_batch_matmul",
      "channel_mode": false
    },
    {
      "axis_h": 2,
      "axis_w": 0,
      "bottom": "489_pre_transpose",
      "axis_k": 1,
      "axis_n": 3,
      "axis_seq": 4,
      "weights": {},
      "debug_info": "489",
      "top": "489",
      "type": "transpose",
      "name": "489"
    },
    {
      "axis_h": 2,
      "axis_w": 0,
      "bottom": "427_4",
      "axis_k": 1,
      "axis_n": 3,
      "axis_seq": 4,
      "weights": {},
      "debug_info": "491_transpose_x",
      "top": "427_4_transposed",
      "type": "transpose",
      "name": "491_transpose_x"
    },
    {
      "axis_h": 2,
      "axis_w": 0,
      "bottom": "473_4",
      "axis_k": 1,
      "axis_n": 3,
      "axis_seq": 4,
      "weights": {},
      "debug_info": "491_transpose_y",
      "top": "473_4_transposed",
      "type": "transpose",
      "name": "491_transpose_y"
    },
    {
      "bottom": "427_4_transposed,473_4_transposed",
      "weights": {},
      "debug_info": "491_batch_matmul",
      "top": "491_pre_transpose",
      "type": "batch_matmul",
      "name": "491_batch_matmul",
      "channel_mode": false
    },
    {
      "axis_h": 2,
      "axis_w": 0,
      "bottom": "491_pre_transpose",
      "axis_k": 1,
      "axis_n": 3,
      "axis_seq": 4,
      "weights": {},
      "debug_info": "491",
      "top": "491",
      "type": "transpose",
      "name": "491"
    },
    {
      "axis_h": 2,
      "axis_w": 0,
      "bottom": "427_5",
      "axis_k": 1,
      "axis_n": 3,
      "axis_seq": 4,
      "weights": {},
      "debug_info": "493_transpose_x",
      "top": "427_5_transposed",
      "type": "transpose",
      "name": "493_transpose_x"
    },
    {
      "axis_h": 2,
      "axis_w": 0,
      "bottom": "473_5",
      "axis_k": 1,
      "axis_n": 3,
      "axis_seq": 4,
      "weights": {},
      "debug_info": "493_transpose_y",
      "top": "473_5_transposed",
      "type": "transpose",
      "name": "493_transpose_y"
    },
    {
      "bottom": "427_5_transposed,473_5_transposed",
      "weights": {},
      "debug_info": "493_batch_matmul",
      "top": "493_pre_transpose",
      "type": "batch_matmul",
      "name": "493_batch_matmul",
      "channel_mode": false
    },
    {
      "axis_h": 2,
      "axis_w": 0,
      "bottom": "493_pre_transpose",
      "axis_k": 1,
      "axis_n": 3,
      "axis_seq": 4,
      "weights": {},
      "debug_info": "493",
      "top": "493",
      "type": "transpose",
      "name": "493"
    },
    {
      "axis_h": 2,
      "axis_w": 0,
      "bottom": "427_6",
      "axis_k": 1,
      "axis_n": 3,
      "axis_seq": 4,
      "weights": {},
      "debug_info": "495_transpose_x",
      "top": "427_6_transposed",
      "type": "transpose",
      "name": "495_transpose_x"
    },
    {
      "axis_h": 2,
      "axis_w": 0,
      "bottom": "473_6",
      "axis_k": 1,
      "axis_n": 3,
      "axis_seq": 4,
      "weights": {},
      "debug_info": "495_transpose_y",
      "top": "473_6_transposed",
      "type": "transpose",
      "name": "495_transpose_y"
    },
    {
      "bottom": "427_6_transposed,473_6_transposed",
      "weights": {},
      "debug_info": "495_batch_matmul",
      "top": "495_pre_transpose",
      "type": "batch_matmul",
      "name": "495_batch_matmul",
      "channel_mode": false
    },
    {
      "axis_h": 2,
      "axis_w": 0,
      "bottom": "495_pre_transpose",
      "axis_k": 1,
      "axis_n": 3,
      "axis_seq": 4,
      "weights": {},
      "debug_info": "495",
      "top": "495",
      "type": "transpose",
      "name": "495"
    },
    {
      "axis_h": 2,
      "axis_w": 0,
      "bottom": "427_7",
      "axis_k": 1,
      "axis_n": 3,
      "axis_seq": 4,
      "weights": {},
      "debug_info": "497_transpose_x",
      "top": "427_7_transposed",
      "type": "transpose",
      "name": "497_transpose_x"
    },
    {
      "axis_h": 2,
      "axis_w": 0,
      "bottom": "473_7",
      "axis_k": 1,
      "axis_n": 3,
      "axis_seq": 4,
      "weights": {},
      "debug_info": "497_transpose_y",
      "top": "473_7_transposed",
      "type": "transpose",
      "name": "497_transpose_y"
    },
    {
      "bottom": "427_7_transposed,473_7_transposed",
      "weights": {},
      "debug_info": "497_batch_matmul",
      "top": "497_pre_transpose",
      "type": "batch_matmul",
      "name": "497_batch_matmul",
      "channel_mode": false
    },
    {
      "axis_h": 2,
      "axis_w": 0,
      "bottom": "497_pre_transpose",
      "axis_k": 1,
      "axis_n": 3,
      "axis_seq": 4,
      "weights": {},
      "debug_info": "497",
      "top": "497",
      "type": "transpose",
      "name": "497"
    },
    {
      "weights": {},
      "debug_info": "attn.11",
      "top": "attn.11",
      "type": "concat",
      "name": "attn.11",
      "bottom": "483,485,487,489,491,493,495,497"
    },
    {
      "pad_r": 0,
      "fused_relu": 0,
      "fused_tanh": 0,
      "debug_info": "",
      "pad_fill_mode": 0,
      "pad_b": 0,
      "pad_l": 0,
      "top": "inputs.9",
      "K": 512,
      "blob_biases": 83,
      "name": "inputs.9",
      "has_batch_norm": 0,
      "type": "convolution",
      "n_groups": 1,
      "pad_t": 0,
      "has_biases": 1,
      "C": 512,
      "bottom": "attn.11",
      "weights": {
        "per_ch_qscale": 85,
        "W_S8": 81,
        "per_ch_qbias": 295
      },
      "Nx": 1,
      "pad_mode": 0,
      "pad_value": 0,
      "Ny": 1,
      "n_parallel": 1
    },
    {
      "axis_mode": 4,
      "bottom": "inputs.9",
      "weights": {},
      "mode": 1,
      "nd_axis": 1,
      "nd_mode": true,
      "debug_info": "channels_mean.13",
      "use_version": 1,
      "top": "channels_mean.13",
      "type": "reduce",
      "name": "channels_mean.13"
    },
    {
      "alpha": -1,
      "bottom": "channels_mean.13",
      "weights": {},
      "mode": 6,
      "debug_info": "_neg_y_zero_mean.13",
      "top": "_neg_y_zero_mean.13",
      "type": "activation",
      "name": "_neg_y_zero_mean.13",
      "beta": 0
    },
    {
      "bottom": "inputs.9,_neg_y_zero_mean.13",
      "alpha": 0.010416666977107525,
      "operation": 0,
      "weights": {},
      "fused_relu": 0,
      "debug_info": "zero_mean.13",
      "top": "zero_mean.13",
      "type": "elementwise",
      "name": "zero_mean.13",
      "beta": 0
    },
    {
      "bottom": "zero_mean.13,zero_mean.13",
      "alpha": 1,
      "operation": 1,
      "weights": {},
      "fused_relu": 0,
      "debug_info": "zero_mean_sq.13",
      "top": "zero_mean_sq.13",
      "type": "elementwise",
      "name": "zero_mean_sq.13",
      "beta": 0
    },
    {
      "axis_mode": 4,
      "bottom": "zero_mean_sq.13",
      "weights": {},
      "mode": 1,
      "nd_axis": 1,
      "nd_mode": true,
      "debug_info": "520",
      "use_version": 1,
      "top": "520",
      "type": "reduce",
      "name": "520"
    },
    {
      "bottom": "520",
      "alpha": 1.0850693676900391e-09,
      "operation": 0,
      "weights": {},
      "fused_relu": 0,
      "debug_info": "522",
      "top": "522",
      "type": "elementwise",
      "name": "522",
      "beta": 0
    },
    {
      "bottom": "522",
      "alpha": 1,
      "operation": 12,
      "eps": 9.999999960041972e-13,
      "weights": {},
      "fused_relu": 0,
      "debug_info": "denom.13",
      "top": "denom.13",
      "type": "elementwise",
      "name": "denom.13",
      "beta": 0
    },
    {
      "bottom": "zero_mean.13,denom.13",
      "alpha": 1,
      "operation": 1,
      "weights": {},
      "fused_relu": 0,
      "debug_info": "out.13",
      "top": "out.13",
      "type": "elementwise",
      "name": "out.13",
      "beta": 0
    },
    {
      "top": "526",
      "w": 1,
      "h": 1,
      "name": "526",
      "nd_rank": 4,
      "type": "load_constant",
      "k": 512,
      "bottom": "",
      "debug_info": "526",
      "n": 1,
      "weights": {},
      "constant_blob": 883
    },
    {
      "bottom": "out.13,526",
      "alpha": 1,
      "operation": 0,
      "weights": {},
      "fused_relu": 0,
      "debug_info": "527",
      "top": "527",
      "type": "elementwise",
      "name": "527",
      "beta": 0
    },
    {
      "top": "529",
      "w": 1,
      "h": 1,
      "name": "529",
      "nd_rank": 4,
      "type": "load_constant",
      "k": 512,
      "bottom": "",
      "debug_info": "529",
      "n": 1,
      "weights": {},
      "constant_blob": 673
    },
    {
      "bottom": "527,529",
      "alpha": 1,
      "operation": 1,
      "weights": {},
      "fused_relu": 0,
      "debug_info": "input.25",
      "top": "input.25",
      "type": "elementwise",
      "name": "input.25",
      "beta": 0
    },
    {
      "pad_r": 0,
      "fused_relu": 0,
      "fused_tanh": 0,
      "debug_info": "",
      "pad_fill_mode": 0,
      "pad_b": 0,
      "pad_l": 0,
      "top": "x.16",
      "K": 512,
      "blob_biases": 677,
      "name": "x.16",
      "has_batch_norm": 0,
      "type": "convolution",
      "n_groups": 1,
      "pad_t": 0,
      "has_biases": 1,
      "C": 256,
      "bottom": "input.25",
      "weights": {
        "per_ch_qscale": 679,
        "W_S8": 675,
        "per_ch_qbias": 875
      },
      "Nx": 1,
      "pad_mode": 0,
      "pad_value": 0,
      "Ny": 1,
      "n_parallel": 1
    },
    {
      "bottom": "x.16",
      "alpha": 1.7020000219345093,
      "operation": 1,
      "weights": {},
      "fused_relu": 0,
      "debug_info": "539",
      "top": "539",
      "type": "elementwise",
      "name": "539",
      "beta": 0
    },
    {
      "bottom": "539",
      "weights": {},
      "mode": 3,
      "debug_info": "540",
      "top": "540",
      "type": "activation",
      "name": "540"
    },
    {
      "bottom": "x.16,540",
      "alpha": 1,
      "operation": 1,
      "weights": {},
      "fused_relu": 0,
      "debug_info": "input.27",
      "top": "input.27",
      "type": "elementwise",
      "name": "input.27",
      "beta": 0
    },
    {
      "pad_r": 0,
      "fused_relu": 0,
      "fused_tanh": 0,
      "debug_info": "",
      "pad_fill_mode": 0,
      "pad_b": 0,
      "pad_l": 0,
      "top": "x.18",
      "K": 256,
      "blob_biases": 683,
      "name": "x.18",
      "has_batch_norm": 0,
      "type": "convolution",
      "n_groups": 1,
      "pad_t": 0,
      "has_biases": 1,
      "C": 512,
      "bottom": "input.27",
      "weights": {
        "per_ch_qscale": 685,
        "W_S8": 681,
        "per_ch_qbias": 295
      },
      "Nx": 1,
      "pad_mode": 0,
      "pad_value": 0,
      "Ny": 1,
      "n_parallel": 1
    },
    {
      "bottom": "x.18,inputs.9",
      "alpha": 1,
      "operation": 0,
      "weights": {},
      "fused_relu": 0,
      "debug_info": "attn.13",
      "top": "attn.13",
      "type": "elementwise",
      "name": "attn.13",
      "beta": 0
    },
    {
      "bottom": "inputs.3,attn.13",
      "alpha": 1,
      "operation": 0,
      "weights": {},
      "fused_relu": 0,
      "debug_info": "inputs0.4",
      "top": "inputs0.4",
      "type": "elementwise",
      "name": "inputs0.4",
      "beta": 0
    },
    {
      "axis_mode": 4,
      "bottom": "inputs0.4",
      "weights": {},
      "mode": 1,
      "nd_axis": 1,
      "nd_mode": true,
      "debug_info": "channels_mean.15",
      "use_version": 1,
      "top": "channels_mean.15",
      "type": "reduce",
      "name": "channels_mean.15"
    },
    {
      "alpha": -1,
      "bottom": "channels_mean.15",
      "weights": {},
      "mode": 6,
      "debug_info": "_neg_y_zero_mean.15",
      "top": "_neg_y_zero_mean.15",
      "type": "activation",
      "name": "_neg_y_zero_mean.15",
      "beta": 0
    },
    {
      "bottom": "inputs0.4,_neg_y_zero_mean.15",
      "alpha": 0.010416666977107525,
      "operation": 0,
      "weights": {},
      "fused_relu": 0,
      "debug_info": "zero_mean.15",
      "top": "zero_mean.15",
      "type": "elementwise",
      "name": "zero_mean.15",
      "beta": 0
    },
    {
      "bottom": "zero_mean.15,zero_mean.15",
      "alpha": 1,
      "operation": 1,
      "weights": {},
      "fused_relu": 0,
      "debug_info": "zero_mean_sq.15",
      "top": "zero_mean_sq.15",
      "type": "elementwise",
      "name": "zero_mean_sq.15",
      "beta": 0
    },
    {
      "axis_mode": 4,
      "bottom": "zero_mean_sq.15",
      "weights": {},
      "mode": 1,
      "nd_axis": 1,
      "nd_mode": true,
      "debug_info": "558",
      "use_version": 1,
      "top": "558",
      "type": "reduce",
      "name": "558"
    },
    {
      "bottom": "558",
      "alpha": 1.0850693676900391e-09,
      "operation": 0,
      "weights": {},
      "fused_relu": 0,
      "debug_info": "560",
      "top": "560",
      "type": "elementwise",
      "name": "560",
      "beta": 0
    },
    {
      "bottom": "560",
      "alpha": 1,
      "operation": 12,
      "eps": 9.999999960041972e-13,
      "weights": {},
      "fused_relu": 0,
      "debug_info": "denom.15",
      "top": "denom.15",
      "type": "elementwise",
      "name": "denom.15",
      "beta": 0
    },
    {
      "bottom": "zero_mean.15,denom.15",
      "alpha": 1,
      "operation": 1,
      "weights": {},
      "fused_relu": 0,
      "debug_info": "out.15",
      "top": "out.15",
      "type": "elementwise",
      "name": "out.15",
      "beta": 0
    },
    {
      "top": "564",
      "w": 1,
      "h": 1,
      "name": "564",
      "nd_rank": 4,
      "type": "load_constant",
      "k": 512,
      "bottom": "",
      "debug_info": "564",
      "n": 1,
      "weights": {},
      "constant_blob": 885
    },
    {
      "bottom": "out.15,564",
      "alpha": 1,
      "operation": 0,
      "weights": {},
      "fused_relu": 0,
      "debug_info": "565",
      "top": "565",
      "type": "elementwise",
      "name": "565",
      "beta": 0
    },
    {
      "top": "567",
      "w": 1,
      "h": 1,
      "name": "567",
      "nd_rank": 4,
      "type": "load_constant",
      "k": 512,
      "bottom": "",
      "debug_info": "567",
      "n": 1,
      "weights": {},
      "constant_blob": 689
    },
    {
      "bottom": "565,567",
      "alpha": 1,
      "operation": 1,
      "weights": {},
      "fused_relu": 0,
      "debug_info": "input.29",
      "top": "input.29",
      "type": "elementwise",
      "name": "input.29",
      "beta": 0
    },
    {
      "pad_r": 0,
      "fused_relu": 0,
      "fused_tanh": 0,
      "debug_info": "",
      "pad_fill_mode": 0,
      "pad_b": 0,
      "pad_l": 0,
      "top": "x.20",
      "K": 512,
      "blob_biases": 93,
      "name": "x.20",
      "has_batch_norm": 0,
      "type": "convolution",
      "n_groups": 1,
      "pad_t": 0,
      "has_biases": 1,
      "C": 2048,
      "bottom": "input.29",
      "weights": {
        "per_ch_qscale": 95,
        "W_S8": 91,
        "per_ch_qbias": 299
      },
      "Nx": 1,
      "pad_mode": 0,
      "pad_value": 0,
      "Ny": 1,
      "n_parallel": 1
    },
    {
      "bottom": "x.20",
      "alpha": 1.7020000219345093,
      "operation": 1,
      "weights": {},
      "fused_relu": 0,
      "debug_info": "579",
      "top": "579",
      "type": "elementwise",
      "name": "579",
      "beta": 0
    },
    {
      "bottom": "579",
      "weights": {},
      "mode": 3,
      "debug_info": "580",
      "top": "580",
      "type": "activation",
      "name": "580"
    },
    {
      "bottom": "x.20,580",
      "alpha": 1,
      "operation": 1,
      "weights": {},
      "fused_relu": 0,
      "debug_info": "input.31",
      "top": "input.31",
      "type": "elementwise",
      "name": "input.31",
      "beta": 0
    },
    {
      "pad_r": 0,
      "fused_relu": 0,
      "fused_tanh": 0,
      "debug_info": "",
      "pad_fill_mode": 0,
      "pad_b": 0,
      "pad_l": 0,
      "top": "input0.7",
      "K": 2048,
      "blob_biases": 99,
      "name": "input0.7",
      "has_batch_norm": 0,
      "type": "convolution",
      "n_groups": 1,
      "pad_t": 0,
      "has_biases": 1,
      "C": 512,
      "bottom": "input.31",
      "weights": {
        "per_ch_qscale": 101,
        "W_S8": 97,
        "per_ch_qbias": 295
      },
      "Nx": 1,
      "pad_mode": 0,
      "pad_value": 0,
      "Ny": 1,
      "n_parallel": 1
    },
    {
      "axis_mode": 4,
      "bottom": "input0.7",
      "weights": {},
      "mode": 1,
      "nd_axis": 1,
      "nd_mode": true,
      "debug_info": "channels_mean.17",
      "use_version": 1,
      "top": "channels_mean.17",
      "type": "reduce",
      "name": "channels_mean.17"
    },
    {
      "alpha": -1,
      "bottom": "channels_mean.17",
      "weights": {},
      "mode": 6,
      "debug_info": "_neg_y_zero_mean.17",
      "top": "_neg_y_zero_mean.17",
      "type": "activation",
      "name": "_neg_y_zero_mean.17",
      "beta": 0
    },
    {
      "bottom": "input0.7,_neg_y_zero_mean.17",
      "alpha": 0.010416666977107525,
      "operation": 0,
      "weights": {},
      "fused_relu": 0,
      "debug_info": "zero_mean.17",
      "top": "zero_mean.17",
      "type": "elementwise",
      "name": "zero_mean.17",
      "beta": 0
    },
    {
      "bottom": "zero_mean.17,zero_mean.17",
      "alpha": 1,
      "operation": 1,
      "weights": {},
      "fused_relu": 0,
      "debug_info": "zero_mean_sq.17",
      "top": "zero_mean_sq.17",
      "type": "elementwise",
      "name": "zero_mean_sq.17",
      "beta": 0
    },
    {
      "axis_mode": 4,
      "bottom": "zero_mean_sq.17",
      "weights": {},
      "mode": 1,
      "nd_axis": 1,
      "nd_mode": true,
      "debug_info": "600",
      "use_version": 1,
      "top": "600",
      "type": "reduce",
      "name": "600"
    },
    {
      "bottom": "600",
      "alpha": 1.0850693676900391e-09,
      "operation": 0,
      "weights": {},
      "fused_relu": 0,
      "debug_info": "602",
      "top": "602",
      "type": "elementwise",
      "name": "602",
      "beta": 0
    },
    {
      "bottom": "602",
      "alpha": 1,
      "operation": 12,
      "eps": 9.999999960041972e-13,
      "weights": {},
      "fused_relu": 0,
      "debug_info": "denom.17",
      "top": "denom.17",
      "type": "elementwise",
      "name": "denom.17",
      "beta": 0
    },
    {
      "bottom": "zero_mean.17,denom.17",
      "alpha": 1,
      "operation": 1,
      "weights": {},
      "fused_relu": 0,
      "debug_info": "out.17",
      "top": "out.17",
      "type": "elementwise",
      "name": "out.17",
      "beta": 0
    },
    {
      "top": "606",
      "w": 1,
      "h": 1,
      "name": "606",
      "nd_rank": 4,
      "type": "load_constant",
      "k": 512,
      "bottom": "",
      "debug_info": "606",
      "n": 1,
      "weights": {},
      "constant_blob": 887
    },
    {
      "bottom": "out.17,606",
      "alpha": 1,
      "operation": 0,
      "weights": {},
      "fused_relu": 0,
      "debug_info": "607",
      "top": "607",
      "type": "elementwise",
      "name": "607",
      "beta": 0
    },
    {
      "top": "609",
      "w": 1,
      "h": 1,
      "name": "609",
      "nd_rank": 4,
      "type": "load_constant",
      "k": 512,
      "bottom": "",
      "debug_info": "609",
      "n": 1,
      "weights": {},
      "constant_blob": 693
    },
    {
      "bottom": "607,609",
      "alpha": 1,
      "operation": 1,
      "weights": {},
      "fused_relu": 0,
      "debug_info": "input.33",
      "top": "input.33",
      "type": "elementwise",
      "name": "input.33",
      "beta": 0
    },
    {
      "pad_r": 0,
      "fused_relu": 0,
      "fused_tanh": 0,
      "debug_info": "",
      "pad_fill_mode": 0,
      "pad_b": 0,
      "pad_l": 0,
      "top": "x.22",
      "K": 512,
      "blob_biases": 697,
      "name": "x.22",
      "has_batch_norm": 0,
      "type": "convolution",
      "n_groups": 1,
      "pad_t": 0,
      "has_biases": 1,
      "C": 256,
      "bottom": "input.33",
      "weights": {
        "per_ch_qscale": 699,
        "W_S8": 695,
        "per_ch_qbias": 875
      },
      "Nx": 1,
      "pad_mode": 0,
      "pad_value": 0,
      "Ny": 1,
      "n_parallel": 1
    },
    {
      "bottom": "x.22",
      "alpha": 1.7020000219345093,
      "operation": 1,
      "weights": {},
      "fused_relu": 0,
      "debug_info": "619",
      "top": "619",
      "type": "elementwise",
      "name": "619",
      "beta": 0
    },
    {
      "bottom": "619",
      "weights": {},
      "mode": 3,
      "debug_info": "620",
      "top": "620",
      "type": "activation",
      "name": "620"
    },
    {
      "bottom": "x.22,620",
      "alpha": 1,
      "operation": 1,
      "weights": {},
      "fused_relu": 0,
      "debug_info": "input.35",
      "top": "input.35",
      "type": "elementwise",
      "name": "input.35",
      "beta": 0
    },
    {
      "pad_r": 0,
      "fused_relu": 0,
      "fused_tanh": 0,
      "debug_info": "",
      "pad_fill_mode": 0,
      "pad_b": 0,
      "pad_l": 0,
      "top": "x.24",
      "K": 256,
      "blob_biases": 703,
      "name": "x.24",
      "has_batch_norm": 0,
      "type": "convolution",
      "n_groups": 1,
      "pad_t": 0,
      "has_biases": 1,
      "C": 512,
      "bottom": "input.35",
      "weights": {
        "per_ch_qscale": 705,
        "W_S8": 701,
        "per_ch_qbias": 295
      },
      "Nx": 1,
      "pad_mode": 0,
      "pad_value": 0,
      "Ny": 1,
      "n_parallel": 1
    },
    {
      "bottom": "x.24,input0.7",
      "alpha": 1,
      "operation": 0,
      "weights": {},
      "fused_relu": 0,
      "debug_info": "f.4",
      "top": "f.4",
      "type": "elementwise",
      "name": "f.4",
      "beta": 0
    },
    {
      "bottom": "f.4,inputs0.4",
      "alpha": 1,
      "operation": 0,
      "weights": {},
      "fused_relu": 0,
      "debug_info": "x1.4",
      "top": "x1.4",
      "type": "elementwise",
      "name": "x1.4",
      "beta": 0
    },
    {
      "bottom": "inputs.3",
      "alpha": 0,
      "operation": 1,
      "weights": {},
      "fused_relu": 0,
      "debug_info": "632",
      "top": "632",
      "type": "elementwise",
      "name": "632",
      "beta": 0
    },
    {
      "bottom": "632,x1.4",
      "alpha": 1,
      "operation": 0,
      "weights": {},
      "fused_relu": 0,
      "debug_info": "inputs0.2",
      "top": "inputs0.2",
      "type": "elementwise",
      "name": "inputs0.2",
      "beta": 0
    },
    {
      "axis_mode": 4,
      "bottom": "inputs0.2",
      "weights": {},
      "mode": 1,
      "nd_axis": 1,
      "nd_mode": true,
      "debug_info": "channels_mean.19",
      "use_version": 1,
      "top": "channels_mean.19",
      "type": "reduce",
      "name": "channels_mean.19"
    },
    {
      "alpha": -1,
      "bottom": "channels_mean.19",
      "weights": {},
      "mode": 6,
      "debug_info": "_neg_y_zero_mean.19",
      "top": "_neg_y_zero_mean.19",
      "type": "activation",
      "name": "_neg_y_zero_mean.19",
      "beta": 0
    },
    {
      "bottom": "inputs0.2,_neg_y_zero_mean.19",
      "alpha": 0.010416666977107525,
      "operation": 0,
      "weights": {},
      "fused_relu": 0,
      "debug_info": "zero_mean.19",
      "top": "zero_mean.19",
      "type": "elementwise",
      "name": "zero_mean.19",
      "beta": 0
    },
    {
      "bottom": "zero_mean.19,zero_mean.19",
      "alpha": 1,
      "operation": 1,
      "weights": {},
      "fused_relu": 0,
      "debug_info": "zero_mean_sq.19",
      "top": "zero_mean_sq.19",
      "type": "elementwise",
      "name": "zero_mean_sq.19",
      "beta": 0
    },
    {
      "axis_mode": 4,
      "bottom": "zero_mean_sq.19",
      "weights": {},
      "mode": 1,
      "nd_axis": 1,
      "nd_mode": true,
      "debug_info": "649",
      "use_version": 1,
      "top": "649",
      "type": "reduce",
      "name": "649"
    },
    {
      "bottom": "649",
      "alpha": 1.0850693676900391e-09,
      "operation": 0,
      "weights": {},
      "fused_relu": 0,
      "debug_info": "651",
      "top": "651",
      "type": "elementwise",
      "name": "651",
      "beta": 0
    },
    {
      "bottom": "651",
      "alpha": 1,
      "operation": 12,
      "eps": 9.999999960041972e-13,
      "weights": {},
      "fused_relu": 0,
      "debug_info": "denom.19",
      "top": "denom.19",
      "type": "elementwise",
      "name": "denom.19",
      "beta": 0
    },
    {
      "bottom": "zero_mean.19,denom.19",
      "alpha": 1,
      "operation": 1,
      "weights": {},
      "fused_relu": 0,
      "debug_info": "out.19",
      "top": "out.19",
      "type": "elementwise",
      "name": "out.19",
      "beta": 0
    },
    {
      "top": "655",
      "w": 1,
      "h": 1,
      "name": "655",
      "nd_rank": 4,
      "type": "load_constant",
      "k": 512,
      "bottom": "",
      "debug_info": "655",
      "n": 1,
      "weights": {},
      "constant_blob": 889
    },
    {
      "bottom": "out.19,655",
      "alpha": 1,
      "operation": 0,
      "weights": {},
      "fused_relu": 0,
      "debug_info": "656",
      "top": "656",
      "type": "elementwise",
      "name": "656",
      "beta": 0
    },
    {
      "top": "658",
      "w": 1,
      "h": 1,
      "name": "658",
      "nd_rank": 4,
      "type": "load_constant",
      "k": 512,
      "bottom": "",
      "debug_info": "658",
      "n": 1,
      "weights": {},
      "constant_blob": 709
    },
    {
      "bottom": "656,658",
      "alpha": 1,
      "operation": 1,
      "weights": {},
      "fused_relu": 0,
      "debug_info": "k.11",
      "top": "k.11",
      "type": "elementwise",
      "name": "k.11",
      "beta": 0
    },
    {
      "pad_r": 0,
      "fused_relu": 0,
      "fused_tanh": 0,
      "debug_info": "",
      "pad_fill_mode": 0,
      "pad_b": 0,
      "pad_l": 0,
      "top": "673",
      "K": 512,
      "blob_biases": 109,
      "name": "673",
      "has_batch_norm": 0,
      "type": "convolution",
      "n_groups": 1,
      "pad_t": 0,
      "has_biases": 1,
      "C": 512,
      "bottom": "k.11",
      "weights": {
        "per_ch_qscale": 111,
        "W_S8": 107,
        "per_ch_qbias": 295
      },
      "Nx": 1,
      "pad_mode": 0,
      "pad_value": 0,
      "Ny": 1,
      "n_parallel": 1
    },
    {
      "pad_r": 0,
      "fused_relu": 0,
      "fused_tanh": 0,
      "debug_info": "",
      "pad_fill_mode": 0,
      "pad_b": 0,
      "pad_l": 0,
      "top": "k.13",
      "K": 512,
      "blob_biases": 115,
      "name": "k.13",
      "has_batch_norm": 0,
      "type": "convolution",
      "n_groups": 1,
      "pad_t": 0,
      "has_biases": 1,
      "C": 512,
      "bottom": "k.11",
      "weights": {
        "per_ch_qscale": 117,
        "W_S8": 113,
        "per_ch_qbias": 295
      },
      "Nx": 1,
      "pad_mode": 0,
      "pad_value": 0,
      "Ny": 1,
      "n_parallel": 1
    },
    {
      "pad_r": 0,
      "fused_relu": 0,
      "fused_tanh": 0,
      "debug_info": "",
      "pad_fill_mode": 0,
      "pad_b": 0,
      "pad_l": 0,
      "top": "687",
      "K": 512,
      "blob_biases": 121,
      "name": "687",
      "has_batch_norm": 0,
      "type": "convolution",
      "n_groups": 1,
      "pad_t": 0,
      "has_biases": 1,
      "C": 512,
      "bottom": "k.11",
      "weights": {
        "per_ch_qscale": 123,
        "W_S8": 119,
        "per_ch_qbias": 295
      },
      "Nx": 1,
      "pad_mode": 0,
      "pad_value": 0,
      "Ny": 1,
      "n_parallel": 1
    },
    {
      "begin_104": 0,
      "begin_63": 0,
      "begin_59": 0,
      "begin_64": 0,
      "begin_105": 0,
      "begin_65": 0,
      "begin_0": 0,
      "begin_70": 0,
      "begin_66": 0,
      "begin_106": 0,
      "begin_110": 0,
      "begin_2": 0,
      "begin_71": 0,
      "begin_67": 0,
      "begin_68": 0,
      "begin_107": 0,
      "begin_111": 0,
      "begin_4": 0,
      "begin_72": 0,
      "begin_73": 0,
      "begin_69": 0,
      "begin_6": 0,
      "begin_74": 0,
      "begin_108": 0,
      "type": "split_nd",
      "begin_8": 0,
      "begin_112": 0,
      "begin_75": 0,
      "begin_10": 0,
      "begin_80": 0,
      "begin_76": 0,
      "begin_109": 0,
      "begin_113": 0,
      "begin_11": 0,
      "nd_axis": 1,
      "begin_81": 0,
      "begin_77": 0,
      "begin_114": 0,
      "begin_12": 0,
      "begin_78": 0,
      "begin_82": 0,
      "begin_13": 0,
      "begin_83": 0,
      "begin_79": 0,
      "begin_115": 0,
      "begin_14": 0,
      "begin_84": 0,
      "begin_15": 0,
      "begin_85": 0,
      "num_splits": 8,
      "begin_116": 0,
      "begin_120": 0,
      "begin_20": 0,
      "begin_86": 0,
      "begin_16": 0,
      "begin_90": 0,
      "begin_21": 0,
      "begin_91": 0,
      "begin_87": 0,
      "begin_17": 0,
      "begin_117": 0,
      "begin_121": 0,
      "begin_18": 0,
      "begin_92": 0,
      "begin_88": 0,
      "begin_22": 0,
      "begin_23": 0,
      "begin_89": 0,
      "begin_19": 0,
      "begin_93": 0,
      "begin_118": 0,
      "begin_122": 0,
      "begin_24": 0,
      "begin_94": 0,
      "begin_25": 0,
      "begin_95": 0,
      "begin_119": 0,
      "begin_123": 0,
      "begin_30": 0,
      "begin_26": 0,
      "begin_96": 0,
      "begin_124": 0,
      "begin_31": 0,
      "begin_97": 0,
      "begin_27": 0,
      "begin_28": 0,
      "begin_98": 0,
      "begin_32": 0,
      "begin_125": 0,
      "begin_33": 0,
      "begin_29": 0,
      "begin_99": 0,
      "begin_1": 0,
      "weights": {},
      "begin_34": 0,
      "bottom": "673",
      "begin_3": 0,
      "begin_126": 0,
      "begin_35": 0,
      "begin_5": 0,
      "begin_36": 0,
      "begin_40": 0,
      "begin_127": 0,
      "name": "688",
      "begin_41": 0,
      "begin_37": 0,
      "begin_7": 0,
      "begin_42": 0,
      "begin_38": 0,
      "begin_9": 0,
      "begin_39": 0,
      "begin_43": 0,
      "begin_44": 0,
      "begin_45": 0,
      "begin_50": 0,
      "begin_46": 0,
      "begin_51": 0,
      "begin_47": 0,
      "begin_100": 0,
      "begin_52": 0,
      "debug_info": "688",
      "begin_48": 0,
      "top": "688_0,688_1,688_2,688_3,688_4,688_5,688_6,688_7",
      "begin_101": 0,
      "begin_53": 0,
      "begin_49": 0,
      "begin_54": 0,
      "begin_55": 0,
      "begin_102": 0,
      "begin_60": 0,
      "begin_56": 0,
      "begin_103": 0,
      "begin_57": 0,
      "begin_61": 0,
      "begin_62": 0,
      "begin_58": 0
    },
    {
      "axis_h": 1,
      "axis_w": 2,
      "bottom": "k.13",
      "axis_k": 0,
      "axis_n": 3,
      "axis_seq": 4,
      "weights": {},
      "debug_info": "transpose_4",
      "top": "transpose_4",
      "type": "transpose",
      "name": "transpose_4"
    },
    {
      "begin_104": 0,
      "begin_63": 0,
      "begin_59": 0,
      "begin_64": 0,
      "begin_105": 0,
      "begin_65": 0,
      "begin_0": 0,
      "begin_70": 0,
      "begin_66": 0,
      "begin_106": 0,
      "begin_110": 0,
      "begin_2": 0,
      "begin_71": 0,
      "begin_67": 0,
      "begin_68": 0,
      "begin_107": 0,
      "begin_111": 0,
      "begin_4": 0,
      "begin_72": 0,
      "begin_73": 0,
      "begin_69": 0,
      "begin_6": 0,
      "begin_74": 0,
      "begin_108": 0,
      "type": "split_nd",
      "begin_8": 0,
      "begin_112": 0,
      "begin_75": 0,
      "begin_10": 0,
      "begin_80": 0,
      "begin_76": 0,
      "begin_109": 0,
      "begin_113": 0,
      "begin_11": 0,
      "nd_axis": 3,
      "begin_81": 0,
      "begin_77": 0,
      "begin_114": 0,
      "begin_12": 0,
      "begin_78": 0,
      "begin_82": 0,
      "begin_13": 0,
      "begin_83": 0,
      "begin_79": 0,
      "begin_115": 0,
      "begin_14": 0,
      "begin_84": 0,
      "begin_15": 0,
      "begin_85": 0,
      "num_splits": 8,
      "begin_116": 0,
      "begin_120": 0,
      "begin_20": 0,
      "begin_86": 0,
      "begin_16": 0,
      "begin_90": 0,
      "begin_21": 0,
      "begin_91": 0,
      "begin_87": 0,
      "begin_17": 0,
      "begin_117": 0,
      "begin_121": 0,
      "begin_18": 0,
      "begin_92": 0,
      "begin_88": 0,
      "begin_22": 0,
      "begin_23": 0,
      "begin_89": 0,
      "begin_19": 0,
      "begin_93": 0,
      "begin_118": 0,
      "begin_122": 0,
      "begin_24": 0,
      "begin_94": 0,
      "begin_25": 0,
      "begin_95": 0,
      "begin_119": 0,
      "begin_123": 0,
      "begin_30": 0,
      "begin_26": 0,
      "begin_96": 0,
      "begin_124": 0,
      "begin_31": 0,
      "begin_97": 0,
      "begin_27": 0,
      "begin_28": 0,
      "begin_98": 0,
      "begin_32": 0,
      "begin_125": 0,
      "begin_33": 0,
      "begin_29": 0,
      "begin_99": 0,
      "begin_1": 0,
      "weights": {},
      "begin_34": 0,
      "bottom": "transpose_4",
      "begin_3": 0,
      "begin_126": 0,
      "begin_35": 0,
      "begin_5": 0,
      "begin_36": 0,
      "begin_40": 0,
      "begin_127": 0,
      "name": "698",
      "begin_41": 0,
      "begin_37": 0,
      "begin_7": 0,
      "begin_42": 0,
      "begin_38": 0,
      "begin_9": 0,
      "begin_39": 0,
      "begin_43": 0,
      "begin_44": 0,
      "begin_45": 0,
      "begin_50": 0,
      "begin_46": 0,
      "begin_51": 0,
      "begin_47": 0,
      "begin_100": 0,
      "begin_52": 0,
      "debug_info": "698",
      "begin_48": 0,
      "top": "698_0,698_1,698_2,698_3,698_4,698_5,698_6,698_7",
      "begin_101": 0,
      "begin_53": 0,
      "begin_49": 0,
      "begin_54": 0,
      "begin_55": 0,
      "begin_102": 0,
      "begin_60": 0,
      "begin_56": 0,
      "begin_103": 0,
      "begin_57": 0,
      "begin_61": 0,
      "begin_62": 0,
      "begin_58": 0
    },
    {
      "begin_104": 0,
      "begin_63": 0,
      "begin_59": 0,
      "begin_64": 0,
      "begin_105": 0,
      "begin_65": 0,
      "begin_0": 0,
      "begin_70": 0,
      "begin_66": 0,
      "begin_106": 0,
      "begin_110": 0,
      "begin_2": 0,
      "begin_71": 0,
      "begin_67": 0,
      "begin_68": 0,
      "begin_107": 0,
      "begin_111": 0,
      "begin_4": 0,
      "begin_72": 0,
      "begin_73": 0,
      "begin_69": 0,
      "begin_6": 0,
      "begin_74": 0,
      "begin_108": 0,
      "type": "split_nd",
      "begin_8": 0,
      "begin_112": 0,
      "begin_75": 0,
      "begin_10": 0,
      "begin_80": 0,
      "begin_76": 0,
      "begin_109": 0,
      "begin_113": 0,
      "begin_11": 0,
      "nd_axis": 1,
      "begin_81": 0,
      "begin_77": 0,
      "begin_114": 0,
      "begin_12": 0,
      "begin_78": 0,
      "begin_82": 0,
      "begin_13": 0,
      "begin_83": 0,
      "begin_79": 0,
      "begin_115": 0,
      "begin_14": 0,
      "begin_84": 0,
      "begin_15": 0,
      "begin_85": 0,
      "num_splits": 8,
      "begin_116": 0,
      "begin_120": 0,
      "begin_20": 0,
      "begin_86": 0,
      "begin_16": 0,
      "begin_90": 0,
      "begin_21": 0,
      "begin_91": 0,
      "begin_87": 0,
      "begin_17": 0,
      "begin_117": 0,
      "begin_121": 0,
      "begin_18": 0,
      "begin_92": 0,
      "begin_88": 0,
      "begin_22": 0,
      "begin_23": 0,
      "begin_89": 0,
      "begin_19": 0,
      "begin_93": 0,
      "begin_118": 0,
      "begin_122": 0,
      "begin_24": 0,
      "begin_94": 0,
      "begin_25": 0,
      "begin_95": 0,
      "begin_119": 0,
      "begin_123": 0,
      "begin_30": 0,
      "begin_26": 0,
      "begin_96": 0,
      "begin_124": 0,
      "begin_31": 0,
      "begin_97": 0,
      "begin_27": 0,
      "begin_28": 0,
      "begin_98": 0,
      "begin_32": 0,
      "begin_125": 0,
      "begin_33": 0,
      "begin_29": 0,
      "begin_99": 0,
      "begin_1": 0,
      "weights": {},
      "begin_34": 0,
      "bottom": "687",
      "begin_3": 0,
      "begin_126": 0,
      "begin_35": 0,
      "begin_5": 0,
      "begin_36": 0,
      "begin_40": 0,
      "begin_127": 0,
      "name": "707",
      "begin_41": 0,
      "begin_37": 0,
      "begin_7": 0,
      "begin_42": 0,
      "begin_38": 0,
      "begin_9": 0,
      "begin_39": 0,
      "begin_43": 0,
      "begin_44": 0,
      "begin_45": 0,
      "begin_50": 0,
      "begin_46": 0,
      "begin_51": 0,
      "begin_47": 0,
      "begin_100": 0,
      "begin_52": 0,
      "debug_info": "707",
      "begin_48": 0,
      "top": "707_0,707_1,707_2,707_3,707_4,707_5,707_6,707_7",
      "begin_101": 0,
      "begin_53": 0,
      "begin_49": 0,
      "begin_54": 0,
      "begin_55": 0,
      "begin_102": 0,
      "begin_60": 0,
      "begin_56": 0,
      "begin_103": 0,
      "begin_57": 0,
      "begin_61": 0,
      "begin_62": 0,
      "begin_58": 0
    },
    {
      "axis_h": 2,
      "axis_w": 0,
      "bottom": "698_0",
      "axis_k": 1,
      "axis_n": 3,
      "axis_seq": 4,
      "weights": {},
      "debug_info": "717_transpose_x",
      "top": "698_0_transposed",
      "type": "transpose",
      "name": "717_transpose_x"
    },
    {
      "axis_h": 2,
      "axis_w": 0,
      "bottom": "688_0",
      "axis_k": 1,
      "axis_n": 3,
      "axis_seq": 4,
      "weights": {},
      "debug_info": "717_transpose_y",
      "top": "688_0_transposed",
      "type": "transpose",
      "name": "717_transpose_y"
    },
    {
      "bottom": "698_0_transposed,688_0_transposed",
      "weights": {},
      "debug_info": "717_batch_matmul",
      "top": "717_pre_transpose",
      "type": "batch_matmul",
      "name": "717_batch_matmul",
      "channel_mode": false
    },
    {
      "axis_h": 2,
      "axis_w": 0,
      "bottom": "717_pre_transpose",
      "axis_k": 1,
      "axis_n": 3,
      "axis_seq": 4,
      "weights": {},
      "debug_info": "717",
      "top": "717",
      "type": "transpose",
      "name": "717"
    },
    {
      "bottom": "717",
      "alpha": 0.125,
      "operation": 1,
      "weights": {},
      "fused_relu": 0,
      "debug_info": "719",
      "top": "719",
      "type": "elementwise",
      "name": "719",
      "beta": 0
    },
    {
      "axis_h": 2,
      "axis_w": 0,
      "bottom": "698_1",
      "axis_k": 1,
      "axis_n": 3,
      "axis_seq": 4,
      "weights": {},
      "debug_info": "721_transpose_x",
      "top": "698_1_transposed",
      "type": "transpose",
      "name": "721_transpose_x"
    },
    {
      "axis_h": 2,
      "axis_w": 0,
      "bottom": "688_1",
      "axis_k": 1,
      "axis_n": 3,
      "axis_seq": 4,
      "weights": {},
      "debug_info": "721_transpose_y",
      "top": "688_1_transposed",
      "type": "transpose",
      "name": "721_transpose_y"
    },
    {
      "bottom": "698_1_transposed,688_1_transposed",
      "weights": {},
      "debug_info": "721_batch_matmul",
      "top": "721_pre_transpose",
      "type": "batch_matmul",
      "name": "721_batch_matmul",
      "channel_mode": false
    },
    {
      "axis_h": 2,
      "axis_w": 0,
      "bottom": "721_pre_transpose",
      "axis_k": 1,
      "axis_n": 3,
      "axis_seq": 4,
      "weights": {},
      "debug_info": "721",
      "top": "721",
      "type": "transpose",
      "name": "721"
    },
    {
      "bottom": "721",
      "alpha": 0.125,
      "operation": 1,
      "weights": {},
      "fused_relu": 0,
      "debug_info": "723",
      "top": "723",
      "type": "elementwise",
      "name": "723",
      "beta": 0
    },
    {
      "axis_h": 2,
      "axis_w": 0,
      "bottom": "698_2",
      "axis_k": 1,
      "axis_n": 3,
      "axis_seq": 4,
      "weights": {},
      "debug_info": "725_transpose_x",
      "top": "698_2_transposed",
      "type": "transpose",
      "name": "725_transpose_x"
    },
    {
      "axis_h": 2,
      "axis_w": 0,
      "bottom": "688_2",
      "axis_k": 1,
      "axis_n": 3,
      "axis_seq": 4,
      "weights": {},
      "debug_info": "725_transpose_y",
      "top": "688_2_transposed",
      "type": "transpose",
      "name": "725_transpose_y"
    },
    {
      "bottom": "698_2_transposed,688_2_transposed",
      "weights": {},
      "debug_info": "725_batch_matmul",
      "top": "725_pre_transpose",
      "type": "batch_matmul",
      "name": "725_batch_matmul",
      "channel_mode": false
    },
    {
      "axis_h": 2,
      "axis_w": 0,
      "bottom": "725_pre_transpose",
      "axis_k": 1,
      "axis_n": 3,
      "axis_seq": 4,
      "weights": {},
      "debug_info": "725",
      "top": "725",
      "type": "transpose",
      "name": "725"
    },
    {
      "bottom": "725",
      "alpha": 0.125,
      "operation": 1,
      "weights": {},
      "fused_relu": 0,
      "debug_info": "727",
      "top": "727",
      "type": "elementwise",
      "name": "727",
      "beta": 0
    },
    {
      "axis_h": 2,
      "axis_w": 0,
      "bottom": "698_3",
      "axis_k": 1,
      "axis_n": 3,
      "axis_seq": 4,
      "weights": {},
      "debug_info": "729_transpose_x",
      "top": "698_3_transposed",
      "type": "transpose",
      "name": "729_transpose_x"
    },
    {
      "axis_h": 2,
      "axis_w": 0,
      "bottom": "688_3",
      "axis_k": 1,
      "axis_n": 3,
      "axis_seq": 4,
      "weights": {},
      "debug_info": "729_transpose_y",
      "top": "688_3_transposed",
      "type": "transpose",
      "name": "729_transpose_y"
    },
    {
      "bottom": "698_3_transposed,688_3_transposed",
      "weights": {},
      "debug_info": "729_batch_matmul",
      "top": "729_pre_transpose",
      "type": "batch_matmul",
      "name": "729_batch_matmul",
      "channel_mode": false
    },
    {
      "axis_h": 2,
      "axis_w": 0,
      "bottom": "729_pre_transpose",
      "axis_k": 1,
      "axis_n": 3,
      "axis_seq": 4,
      "weights": {},
      "debug_info": "729",
      "top": "729",
      "type": "transpose",
      "name": "729"
    },
    {
      "bottom": "729",
      "alpha": 0.125,
      "operation": 1,
      "weights": {},
      "fused_relu": 0,
      "debug_info": "731",
      "top": "731",
      "type": "elementwise",
      "name": "731",
      "beta": 0
    },
    {
      "axis_h": 2,
      "axis_w": 0,
      "bottom": "698_4",
      "axis_k": 1,
      "axis_n": 3,
      "axis_seq": 4,
      "weights": {},
      "debug_info": "733_transpose_x",
      "top": "698_4_transposed",
      "type": "transpose",
      "name": "733_transpose_x"
    },
    {
      "axis_h": 2,
      "axis_w": 0,
      "bottom": "688_4",
      "axis_k": 1,
      "axis_n": 3,
      "axis_seq": 4,
      "weights": {},
      "debug_info": "733_transpose_y",
      "top": "688_4_transposed",
      "type": "transpose",
      "name": "733_transpose_y"
    },
    {
      "bottom": "698_4_transposed,688_4_transposed",
      "weights": {},
      "debug_info": "733_batch_matmul",
      "top": "733_pre_transpose",
      "type": "batch_matmul",
      "name": "733_batch_matmul",
      "channel_mode": false
    },
    {
      "axis_h": 2,
      "axis_w": 0,
      "bottom": "733_pre_transpose",
      "axis_k": 1,
      "axis_n": 3,
      "axis_seq": 4,
      "weights": {},
      "debug_info": "733",
      "top": "733",
      "type": "transpose",
      "name": "733"
    },
    {
      "bottom": "733",
      "alpha": 0.125,
      "operation": 1,
      "weights": {},
      "fused_relu": 0,
      "debug_info": "735",
      "top": "735",
      "type": "elementwise",
      "name": "735",
      "beta": 0
    },
    {
      "axis_h": 2,
      "axis_w": 0,
      "bottom": "698_5",
      "axis_k": 1,
      "axis_n": 3,
      "axis_seq": 4,
      "weights": {},
      "debug_info": "737_transpose_x",
      "top": "698_5_transposed",
      "type": "transpose",
      "name": "737_transpose_x"
    },
    {
      "axis_h": 2,
      "axis_w": 0,
      "bottom": "688_5",
      "axis_k": 1,
      "axis_n": 3,
      "axis_seq": 4,
      "weights": {},
      "debug_info": "737_transpose_y",
      "top": "688_5_transposed",
      "type": "transpose",
      "name": "737_transpose_y"
    },
    {
      "bottom": "698_5_transposed,688_5_transposed",
      "weights": {},
      "debug_info": "737_batch_matmul",
      "top": "737_pre_transpose",
      "type": "batch_matmul",
      "name": "737_batch_matmul",
      "channel_mode": false
    },
    {
      "axis_h": 2,
      "axis_w": 0,
      "bottom": "737_pre_transpose",
      "axis_k": 1,
      "axis_n": 3,
      "axis_seq": 4,
      "weights": {},
      "debug_info": "737",
      "top": "737",
      "type": "transpose",
      "name": "737"
    },
    {
      "bottom": "737",
      "alpha": 0.125,
      "operation": 1,
      "weights": {},
      "fused_relu": 0,
      "debug_info": "739",
      "top": "739",
      "type": "elementwise",
      "name": "739",
      "beta": 0
    },
    {
      "axis_h": 2,
      "axis_w": 0,
      "bottom": "698_6",
      "axis_k": 1,
      "axis_n": 3,
      "axis_seq": 4,
      "weights": {},
      "debug_info": "741_transpose_x",
      "top": "698_6_transposed",
      "type": "transpose",
      "name": "741_transpose_x"
    },
    {
      "axis_h": 2,
      "axis_w": 0,
      "bottom": "688_6",
      "axis_k": 1,
      "axis_n": 3,
      "axis_seq": 4,
      "weights": {},
      "debug_info": "741_transpose_y",
      "top": "688_6_transposed",
      "type": "transpose",
      "name": "741_transpose_y"
    },
    {
      "bottom": "698_6_transposed,688_6_transposed",
      "weights": {},
      "debug_info": "741_batch_matmul",
      "top": "741_pre_transpose",
      "type": "batch_matmul",
      "name": "741_batch_matmul",
      "channel_mode": false
    },
    {
      "axis_h": 2,
      "axis_w": 0,
      "bottom": "741_pre_transpose",
      "axis_k": 1,
      "axis_n": 3,
      "axis_seq": 4,
      "weights": {},
      "debug_info": "741",
      "top": "741",
      "type": "transpose",
      "name": "741"
    },
    {
      "bottom": "741",
      "alpha": 0.125,
      "operation": 1,
      "weights": {},
      "fused_relu": 0,
      "debug_info": "743",
      "top": "743",
      "type": "elementwise",
      "name": "743",
      "beta": 0
    },
    {
      "axis_h": 2,
      "axis_w": 0,
      "bottom": "698_7",
      "axis_k": 1,
      "axis_n": 3,
      "axis_seq": 4,
      "weights": {},
      "debug_info": "745_transpose_x",
      "top": "698_7_transposed",
      "type": "transpose",
      "name": "745_transpose_x"
    },
    {
      "axis_h": 2,
      "axis_w": 0,
      "bottom": "688_7",
      "axis_k": 1,
      "axis_n": 3,
      "axis_seq": 4,
      "weights": {},
      "debug_info": "745_transpose_y",
      "top": "688_7_transposed",
      "type": "transpose",
      "name": "745_transpose_y"
    },
    {
      "bottom": "698_7_transposed,688_7_transposed",
      "weights": {},
      "debug_info": "745_batch_matmul",
      "top": "745_pre_transpose",
      "type": "batch_matmul",
      "name": "745_batch_matmul",
      "channel_mode": false
    },
    {
      "axis_h": 2,
      "axis_w": 0,
      "bottom": "745_pre_transpose",
      "axis_k": 1,
      "axis_n": 3,
      "axis_seq": 4,
      "weights": {},
      "debug_info": "745",
      "top": "745",
      "type": "transpose",
      "name": "745"
    },
    {
      "bottom": "745",
      "alpha": 0.125,
      "operation": 1,
      "weights": {},
      "fused_relu": 0,
      "debug_info": "747",
      "top": "747",
      "type": "elementwise",
      "name": "747",
      "beta": 0
    },
    {
      "bottom": "719,723,727,731,735,739,743,747",
      "weights": {},
      "nd_mode": true,
      "axis": 2,
      "debug_info": "attn_weights.6",
      "top": "attn_weights.6",
      "type": "general_concat",
      "name": "attn_weights.6"
    },
    {
      "bottom": "attn_weights.6,qk_mask.1",
      "alpha": 1,
      "operation": 0,
      "weights": {},
      "fused_relu": 0,
      "debug_info": "attn_weights0.6",
      "nd_mode": true,
      "top": "attn_weights0.6",
      "type": "elementwise",
      "name": "attn_weights0.6",
      "beta": 0
    },
    {
      "bottom": "attn_weights0.6",
      "weights": {},
      "debug_info": "input.37",
      "top": "input.37",
      "C": 2,
      "type": "softmax",
      "name": "input.37"
    },
    {
      "begin_104": 0,
      "begin_63": 0,
      "begin_59": 0,
      "begin_64": 0,
      "begin_105": 0,
      "begin_65": 0,
      "begin_0": 0,
      "begin_70": 0,
      "begin_66": 0,
      "begin_106": 0,
      "begin_110": 0,
      "begin_2": 0,
      "begin_71": 0,
      "begin_67": 0,
      "begin_68": 0,
      "begin_107": 0,
      "begin_111": 0,
      "begin_4": 0,
      "begin_72": 0,
      "begin_73": 0,
      "begin_69": 0,
      "begin_6": 0,
      "begin_74": 0,
      "begin_108": 0,
      "type": "split_nd",
      "begin_8": 0,
      "begin_112": 0,
      "begin_75": 0,
      "begin_10": 0,
      "begin_80": 0,
      "begin_76": 0,
      "begin_109": 0,
      "begin_113": 0,
      "begin_11": 0,
      "nd_axis": 2,
      "begin_81": 0,
      "begin_77": 0,
      "begin_114": 0,
      "begin_12": 0,
      "begin_78": 0,
      "begin_82": 0,
      "begin_13": 0,
      "begin_83": 0,
      "begin_79": 0,
      "begin_115": 0,
      "begin_14": 0,
      "begin_84": 0,
      "begin_15": 0,
      "begin_85": 0,
      "num_splits": 8,
      "begin_116": 0,
      "begin_120": 0,
      "begin_20": 0,
      "begin_86": 0,
      "begin_16": 0,
      "begin_90": 0,
      "begin_21": 0,
      "begin_91": 0,
      "begin_87": 0,
      "begin_17": 0,
      "begin_117": 0,
      "begin_121": 0,
      "begin_18": 0,
      "begin_92": 0,
      "begin_88": 0,
      "begin_22": 0,
      "begin_23": 0,
      "begin_89": 0,
      "begin_19": 0,
      "begin_93": 0,
      "begin_118": 0,
      "begin_122": 0,
      "begin_24": 0,
      "begin_94": 0,
      "begin_25": 0,
      "begin_95": 0,
      "begin_119": 0,
      "begin_123": 0,
      "begin_30": 0,
      "begin_26": 0,
      "begin_96": 0,
      "begin_124": 0,
      "begin_31": 0,
      "begin_97": 0,
      "begin_27": 0,
      "begin_28": 0,
      "begin_98": 0,
      "begin_32": 0,
      "begin_125": 0,
      "begin_33": 0,
      "begin_29": 0,
      "begin_99": 0,
      "begin_1": 0,
      "weights": {},
      "begin_34": 0,
      "bottom": "input.37",
      "begin_3": 0,
      "begin_126": 0,
      "begin_35": 0,
      "begin_5": 0,
      "begin_36": 0,
      "begin_40": 0,
      "begin_127": 0,
      "name": "753",
      "begin_41": 0,
      "begin_37": 0,
      "begin_7": 0,
      "begin_42": 0,
      "begin_38": 0,
      "begin_9": 0,
      "begin_39": 0,
      "begin_43": 0,
      "begin_44": 0,
      "begin_45": 0,
      "begin_50": 0,
      "begin_46": 0,
      "begin_51": 0,
      "begin_47": 0,
      "begin_100": 0,
      "begin_52": 0,
      "debug_info": "753",
      "begin_48": 0,
      "top": "753_0,753_1,753_2,753_3,753_4,753_5,753_6,753_7",
      "begin_101": 0,
      "begin_53": 0,
      "begin_49": 0,
      "begin_54": 0,
      "begin_55": 0,
      "begin_102": 0,
      "begin_60": 0,
      "begin_56": 0,
      "begin_103": 0,
      "begin_57": 0,
      "begin_61": 0,
      "begin_62": 0,
      "begin_58": 0
    },
    {
      "axis_h": 2,
      "axis_w": 0,
      "bottom": "707_0",
      "axis_k": 1,
      "axis_n": 3,
      "axis_seq": 4,
      "weights": {},
      "debug_info": "763_transpose_x",
      "top": "707_0_transposed",
      "type": "transpose",
      "name": "763_transpose_x"
    },
    {
      "axis_h": 2,
      "axis_w": 0,
      "bottom": "753_0",
      "axis_k": 1,
      "axis_n": 3,
      "axis_seq": 4,
      "weights": {},
      "debug_info": "763_transpose_y",
      "top": "753_0_transposed",
      "type": "transpose",
      "name": "763_transpose_y"
    },
    {
      "bottom": "707_0_transposed,753_0_transposed",
      "weights": {},
      "debug_info": "763_batch_matmul",
      "top": "763_pre_transpose",
      "type": "batch_matmul",
      "name": "763_batch_matmul",
      "channel_mode": false
    },
    {
      "axis_h": 2,
      "axis_w": 0,
      "bottom": "763_pre_transpose",
      "axis_k": 1,
      "axis_n": 3,
      "axis_seq": 4,
      "weights": {},
      "debug_info": "763",
      "top": "763",
      "type": "transpose",
      "name": "763"
    },
    {
      "axis_h": 2,
      "axis_w": 0,
      "bottom": "707_1",
      "axis_k": 1,
      "axis_n": 3,
      "axis_seq": 4,
      "weights": {},
      "debug_info": "765_transpose_x",
      "top": "707_1_transposed",
      "type": "transpose",
      "name": "765_transpose_x"
    },
    {
      "axis_h": 2,
      "axis_w": 0,
      "bottom": "753_1",
      "axis_k": 1,
      "axis_n": 3,
      "axis_seq": 4,
      "weights": {},
      "debug_info": "765_transpose_y",
      "top": "753_1_transposed",
      "type": "transpose",
      "name": "765_transpose_y"
    },
    {
      "bottom": "707_1_transposed,753_1_transposed",
      "weights": {},
      "debug_info": "765_batch_matmul",
      "top": "765_pre_transpose",
      "type": "batch_matmul",
      "name": "765_batch_matmul",
      "channel_mode": false
    },
    {
      "axis_h": 2,
      "axis_w": 0,
      "bottom": "765_pre_transpose",
      "axis_k": 1,
      "axis_n": 3,
      "axis_seq": 4,
      "weights": {},
      "debug_info": "765",
      "top": "765",
      "type": "transpose",
      "name": "765"
    },
    {
      "axis_h": 2,
      "axis_w": 0,
      "bottom": "707_2",
      "axis_k": 1,
      "axis_n": 3,
      "axis_seq": 4,
      "weights": {},
      "debug_info": "767_transpose_x",
      "top": "707_2_transposed",
      "type": "transpose",
      "name": "767_transpose_x"
    },
    {
      "axis_h": 2,
      "axis_w": 0,
      "bottom": "753_2",
      "axis_k": 1,
      "axis_n": 3,
      "axis_seq": 4,
      "weights": {},
      "debug_info": "767_transpose_y",
      "top": "753_2_transposed",
      "type": "transpose",
      "name": "767_transpose_y"
    },
    {
      "bottom": "707_2_transposed,753_2_transposed",
      "weights": {},
      "debug_info": "767_batch_matmul",
      "top": "767_pre_transpose",
      "type": "batch_matmul",
      "name": "767_batch_matmul",
      "channel_mode": false
    },
    {
      "axis_h": 2,
      "axis_w": 0,
      "bottom": "767_pre_transpose",
      "axis_k": 1,
      "axis_n": 3,
      "axis_seq": 4,
      "weights": {},
      "debug_info": "767",
      "top": "767",
      "type": "transpose",
      "name": "767"
    },
    {
      "axis_h": 2,
      "axis_w": 0,
      "bottom": "707_3",
      "axis_k": 1,
      "axis_n": 3,
      "axis_seq": 4,
      "weights": {},
      "debug_info": "769_transpose_x",
      "top": "707_3_transposed",
      "type": "transpose",
      "name": "769_transpose_x"
    },
    {
      "axis_h": 2,
      "axis_w": 0,
      "bottom": "753_3",
      "axis_k": 1,
      "axis_n": 3,
      "axis_seq": 4,
      "weights": {},
      "debug_info": "769_transpose_y",
      "top": "753_3_transposed",
      "type": "transpose",
      "name": "769_transpose_y"
    },
    {
      "bottom": "707_3_transposed,753_3_transposed",
      "weights": {},
      "debug_info": "769_batch_matmul",
      "top": "769_pre_transpose",
      "type": "batch_matmul",
      "name": "769_batch_matmul",
      "channel_mode": false
    },
    {
      "axis_h": 2,
      "axis_w": 0,
      "bottom": "769_pre_transpose",
      "axis_k": 1,
      "axis_n": 3,
      "axis_seq": 4,
      "weights": {},
      "debug_info": "769",
      "top": "769",
      "type": "transpose",
      "name": "769"
    },
    {
      "axis_h": 2,
      "axis_w": 0,
      "bottom": "707_4",
      "axis_k": 1,
      "axis_n": 3,
      "axis_seq": 4,
      "weights": {},
      "debug_info": "771_transpose_x",
      "top": "707_4_transposed",
      "type": "transpose",
      "name": "771_transpose_x"
    },
    {
      "axis_h": 2,
      "axis_w": 0,
      "bottom": "753_4",
      "axis_k": 1,
      "axis_n": 3,
      "axis_seq": 4,
      "weights": {},
      "debug_info": "771_transpose_y",
      "top": "753_4_transposed",
      "type": "transpose",
      "name": "771_transpose_y"
    },
    {
      "bottom": "707_4_transposed,753_4_transposed",
      "weights": {},
      "debug_info": "771_batch_matmul",
      "top": "771_pre_transpose",
      "type": "batch_matmul",
      "name": "771_batch_matmul",
      "channel_mode": false
    },
    {
      "axis_h": 2,
      "axis_w": 0,
      "bottom": "771_pre_transpose",
      "axis_k": 1,
      "axis_n": 3,
      "axis_seq": 4,
      "weights": {},
      "debug_info": "771",
      "top": "771",
      "type": "transpose",
      "name": "771"
    },
    {
      "axis_h": 2,
      "axis_w": 0,
      "bottom": "707_5",
      "axis_k": 1,
      "axis_n": 3,
      "axis_seq": 4,
      "weights": {},
      "debug_info": "773_transpose_x",
      "top": "707_5_transposed",
      "type": "transpose",
      "name": "773_transpose_x"
    },
    {
      "axis_h": 2,
      "axis_w": 0,
      "bottom": "753_5",
      "axis_k": 1,
      "axis_n": 3,
      "axis_seq": 4,
      "weights": {},
      "debug_info": "773_transpose_y",
      "top": "753_5_transposed",
      "type": "transpose",
      "name": "773_transpose_y"
    },
    {
      "bottom": "707_5_transposed,753_5_transposed",
      "weights": {},
      "debug_info": "773_batch_matmul",
      "top": "773_pre_transpose",
      "type": "batch_matmul",
      "name": "773_batch_matmul",
      "channel_mode": false
    },
    {
      "axis_h": 2,
      "axis_w": 0,
      "bottom": "773_pre_transpose",
      "axis_k": 1,
      "axis_n": 3,
…
      "begin_8": 0,
      "begin_112": 0,
      "begin_75": 0,
      "begin_10": 0,
      "begin_80": 0,
      "begin_76": 0,
      "begin_109": 0,
      "begin_113": 0,
      "begin_11": 0,
      "nd_axis": 3,
      "begin_81": 0,
      "begin_77": 0,
      "begin_114": 0,
      "begin_12": 0,
      "begin_78": 0,
      "begin_82": 0,
      "begin_13": 0,
      "begin_83": 0,
      "begin_79": 0,
      "begin_115": 0,
      "begin_14": 0,
      "begin_84": 0,
      "begin_15": 0,
      "begin_85": 0,
      "num_splits": 8,
      "begin_116": 0,
      "begin_120": 0,
      "begin_20": 0,
      "begin_86": 0,
      "begin_16": 0,
      "begin_90": 0,
      "begin_21": 0,
      "begin_91": 0,
      "begin_87": 0,
      "begin_17": 0,
      "begin_117": 0,
      "begin_121": 0,
      "begin_18": 0,
      "begin_92": 0,
      "begin_88": 0,
      "begin_22": 0,
      "begin_23": 0,
      "begin_89": 0,
      "begin_19": 0,
      "begin_93": 0,
      "begin_118": 0,
      "begin_122": 0,
      "begin_24": 0,
      "begin_94": 0,
      "begin_25": 0,
      "begin_95": 0,
      "begin_119": 0,
      "begin_123": 0,
      "begin_30": 0,
      "begin_26": 0,
      "begin_96": 0,
      "begin_124": 0,
      "begin_31": 0,
      "begin_97": 0,
      "begin_27": 0,
      "begin_28": 0,
      "begin_98": 0,
      "begin_32": 0,
      "begin_125": 0,
      "begin_33": 0,
      "begin_29": 0,
      "begin_99": 0,
      "begin_1": 0,
      "weights": {},
      "begin_34": 0,
      "bottom": "transpose_1",
      "begin_3": 0,
      "begin_126": 0,
      "begin_35": 0,
      "begin_5": 0,
      "begin_36": 0,
      "begin_40": 0,
      "begin_127": 0,
      "name": "1538",
      "begin_41": 0,
      "begin_37": 0,
      "begin_7": 0,
      "begin_42": 0,
      "begin_38": 0,
      "begin_9": 0,
      "begin_39": 0,
      "begin_43": 0,
      "begin_44": 0,
      "begin_45": 0,
      "begin_50": 0,
      "begin_46": 0,
      "begin_51": 0,
      "begin_47": 0,
      "begin_100": 0,
      "begin_52": 0,
      "debug_info": "1538",
      "begin_48": 0,
      "top": "1538_0,1538_1,1538_2,1538_3,1538_4,1538_5,1538_6,1538_7",
      "begin_101": 0,
      "begin_53": 0,
      "begin_49": 0,
      "begin_54": 0,
      "begin_55": 0,
      "begin_102": 0,
      "begin_60": 0,
      "begin_56": 0,
      "begin_103": 0,
      "begin_57": 0,
      "begin_61": 0,
      "begin_62": 0,
      "begin_58": 0
    },
    {
      "begin_104": 0,
      "begin_63": 0,
      "begin_59": 0,
      "begin_64": 0,
      "begin_105": 0,
      "begin_65": 0,
      "begin_0": 0,
      "begin_70": 0,
      "begin_66": 0,
      "begin_106": 0,
      "begin_110": 0,
      "begin_2": 0,
      "begin_71": 0,
      "begin_67": 0,
      "begin_68": 0,
      "begin_107": 0,
      "begin_111": 0,
      "begin_4": 0,
      "begin_72": 0,
      "begin_73": 0,
      "begin_69": 0,
      "begin_6": 0,
      "begin_74": 0,
      "begin_108": 0,
      "type": "split_nd",
      "begin_8": 0,
      "begin_112": 0,
      "begin_75": 0,
      "begin_10": 0,
      "begin_80": 0,
      "begin_76": 0,
      "begin_109": 0,
      "begin_113": 0,
      "begin_11": 0,
      "nd_axis": 1,
      "begin_81": 0,
      "begin_77": 0,
      "begin_114": 0,
      "begin_12": 0,
      "begin_78": 0,
      "begin_82": 0,
      "begin_13": 0,
      "begin_83": 0,
      "begin_79": 0,
      "begin_115": 0,
      "begin_14": 0,
      "begin_84": 0,
      "begin_15": 0,
      "begin_85": 0,
      "num_splits": 8,
      "begin_116": 0,
      "begin_120": 0,
      "begin_20": 0,
      "begin_86": 0,
      "begin_16": 0,
      "begin_90": 0,
      "begin_21": 0,
      "begin_91": 0,
      "begin_87": 0,
      "begin_17": 0,
      "begin_117": 0,
      "begin_121": 0,
      "begin_18": 0,
      "begin_92": 0,
      "begin_88": 0,
      "begin_22": 0,
      "begin_23": 0,
      "begin_89": 0,
      "begin_19": 0,
      "begin_93": 0,
      "begin_118": 0,
      "begin_122": 0,
      "begin_24": 0,
      "begin_94": 0,
      "begin_25": 0,
      "begin_95": 0,
      "begin_119": 0,
      "begin_123": 0,
      "begin_30": 0,
      "begin_26": 0,
      "begin_96": 0,
      "begin_124": 0,
      "begin_31": 0,
      "begin_97": 0,
      "begin_27": 0,
      "begin_28": 0,
      "begin_98": 0,
      "begin_32": 0,
      "begin_125": 0,
      "begin_33": 0,
      "begin_29": 0,
      "begin_99": 0,
      "begin_1": 0,
      "weights": {},
      "begin_34": 0,
      "bottom": "1527",
      "begin_3": 0,
      "begin_126": 0,
      "begin_35": 0,
      "begin_5": 0,
      "begin_36": 0,
      "begin_40": 0,
      "begin_127": 0,
      "name": "1547",
      "begin_41": 0,
      "begin_37": 0,
      "begin_7": 0,
      "begin_42": 0,
      "begin_38": 0,
      "begin_9": 0,
      "begin_39": 0,
      "begin_43": 0,
      "begin_44": 0,
      "begin_45": 0,
      "begin_50": 0,
      "begin_46": 0,
      "begin_51": 0,
      "begin_47": 0,
      "begin_100": 0,
      "begin_52": 0,
      "debug_info": "1547",
      "begin_48": 0,
      "top": "1547_0,1547_1,1547_2,1547_3,1547_4,1547_5,1547_6,1547_7",
      "begin_101": 0,
      "begin_53": 0,
      "begin_49": 0,
      "begin_54": 0,
      "begin_55": 0,
      "begin_102": 0,
      "begin_60": 0,
      "begin_56": 0,
      "begin_103": 0,
      "begin_57": 0,
      "begin_61": 0,
      "begin_62": 0,
      "begin_58": 0
    },
    {
      "axis_h": 2,
      "axis_w": 0,
      "bottom": "1538_0",
      "axis_k": 1,
      "axis_n": 3,
      "axis_seq": 4,
      "weights": {},
      "debug_info": "1557_transpose_x",
      "top": "1538_0_transposed",
      "type": "transpose",
      "name": "1557_transpose_x"
    },
    {
      "axis_h": 2,
      "axis_w": 0,
      "bottom": "1528_0",
      "axis_k": 1,
      "axis_n": 3,
      "axis_seq": 4,
      "weights": {},
      "debug_info": "1557_transpose_y",
      "top": "1528_0_transposed",
      "type": "transpose",
      "name": "1557_transpose_y"
    },
    {
      "bottom": "1538_0_transposed,1528_0_transposed",
      "weights": {},
      "debug_info": "1557_batch_matmul",
      "top": "1557_pre_transpose",
      "type": "batch_matmul",
      "name": "1557_batch_matmul",
      "channel_mode": false
    },
    {
      "axis_h": 2,
      "axis_w": 0,
      "bottom": "1557_pre_transpose",
      "axis_k": 1,
      "axis_n": 3,
      "axis_seq": 4,
      "weights": {},
      "debug_info": "1557",
      "top": "1557",
      "type": "transpose",
      "name": "1557"
    },
    {
      "bottom": "1557",
      "alpha": 0.125,
      "operation": 1,
      "weights": {},
      "fused_relu": 0,
      "debug_info": "1559",
      "top": "1559",
      "type": "elementwise",
      "name": "1559",
      "beta": 0
    },
    {
      "axis_h": 2,
      "axis_w": 0,
      "bottom": "1538_1",
      "axis_k": 1,
      "axis_n": 3,
      "axis_seq": 4,
      "weights": {},
      "debug_info": "1561_transpose_x",
      "top": "1538_1_transposed",
      "type": "transpose",
      "name": "1561_transpose_x"
    },
    {
      "axis_h": 2,
      "axis_w": 0,
      "bottom": "1528_1",
      "axis_k": 1,
      "axis_n": 3,
      "axis_seq": 4,
      "weights": {},
      "debug_info": "1561_transpose_y",
      "top": "1528_1_transposed",
      "type": "transpose",
      "name": "1561_transpose_y"
    },
    {
      "bottom": "1538_1_transposed,1528_1_transposed",
      "weights": {},
      "debug_info": "1561_batch_matmul",
      "top": "1561_pre_transpose",
      "type": "batch_matmul",
      "name": "1561_batch_matmul",
      "channel_mode": false
    },
    {
      "axis_h": 2,
      "axis_w": 0,
      "bottom": "1561_pre_transpose",
      "axis_k": 1,
      "axis_n": 3,
      "axis_seq": 4,
      "weights": {},
      "debug_info": "1561",
      "top": "1561",
      "type": "transpose",
      "name": "1561"
    },
    {
      "bottom": "1561",
      "alpha": 0.125,
      "operation": 1,
      "weights": {},
      "fused_relu": 0,
      "debug_info": "1563",
      "top": "1563",
      "type": "elementwise",
      "name": "1563",
      "beta": 0
    },
    {
      "axis_h": 2,
      "axis_w": 0,
      "bottom": "1538_2",
      "axis_k": 1,
      "axis_n": 3,
      "axis_seq": 4,
      "weights": {},
      "debug_info": "1565_transpose_x",
      "top": "1538_2_transposed",
      "type": "transpose",
      "name": "1565_transpose_x"
    },
    {
      "axis_h": 2,
      "axis_w": 0,
      "bottom": "1528_2",
      "axis_k": 1,
      "axis_n": 3,
      "axis_seq": 4,
      "weights": {},
      "debug_info": "1565_transpose_y",
      "top": "1528_2_transposed",
      "type": "transpose",
      "name": "1565_transpose_y"
    },
    {
      "bottom": "1538_2_transposed,1528_2_transposed",
      "weights": {},
      "debug_info": "1565_batch_matmul",
      "top": "1565_pre_transpose",
      "type": "batch_matmul",
      "name": "1565_batch_matmul",
      "channel_mode": false
    },
    {
      "axis_h": 2,
      "axis_w": 0,
      "bottom": "1565_pre_transpose",
      "axis_k": 1,
      "axis_n": 3,
      "axis_seq": 4,
      "weights": {},
      "debug_info": "1565",
      "top": "1565",
      "type": "transpose",
      "name": "1565"
    },
    {
      "bottom": "1565",
      "alpha": 0.125,
      "operation": 1,
      "weights": {},
      "fused_relu": 0,
      "debug_info": "1567",
      "top": "1567",
      "type": "elementwise",
      "name": "1567",
      "beta": 0
    },
    {
      "axis_h": 2,
      "axis_w": 0,
      "bottom": "1538_3",
      "axis_k": 1,
      "axis_n": 3,
      "axis_seq": 4,
      "weights": {},
      "debug_info": "1569_transpose_x",
      "top": "1538_3_transposed",
      "type": "transpose",
      "name": "1569_transpose_x"
    },
    {
      "axis_h": 2,
      "axis_w": 0,
      "bottom": "1528_3",
      "axis_k": 1,
      "axis_n": 3,
      "axis_seq": 4,
      "weights": {},
      "debug_info": "1569_transpose_y",
      "top": "1528_3_transposed",
      "type": "transpose",
      "name": "1569_transpose_y"
    },
    {
      "bottom": "1538_3_transposed,1528_3_transposed",
      "weights": {},
      "debug_info": "1569_batch_matmul",
      "top": "1569_pre_transpose",
      "type": "batch_matmul",
      "name": "1569_batch_matmul",
      "channel_mode": false
    },
    {
      "axis_h": 2,
      "axis_w": 0,
      "bottom": "1569_pre_transpose",
      "axis_k": 1,
      "axis_n": 3,
      "axis_seq": 4,
      "weights": {},
      "debug_info": "1569",
      "top": "1569",
      "type": "transpose",
      "name": "1569"
    },
    {
      "bottom": "1569",
      "alpha": 0.125,
      "operation": 1,
      "weights": {},
      "fused_relu": 0,
      "debug_info": "1571",
      "top": "1571",
      "type": "elementwise",
      "name": "1571",
      "beta": 0
    },
    {
      "axis_h": 2,
      "axis_w": 0,
      "bottom": "1538_4",
      "axis_k": 1,
      "axis_n": 3,
      "axis_seq": 4,
      "weights": {},
      "debug_info": "1573_transpose_x",
      "top": "1538_4_transposed",
      "type": "transpose",
      "name": "1573_transpose_x"
    },
    {
      "axis_h": 2,
      "axis_w": 0,
      "bottom": "1528_4",
      "axis_k": 1,
      "axis_n": 3,
      "axis_seq": 4,
      "weights": {},
      "debug_info": "1573_transpose_y",
      "top": "1528_4_transposed",
      "type": "transpose",
      "name": "1573_transpose_y"
    },
    {
      "bottom": "1538_4_transposed,1528_4_transposed",
      "weights": {},
      "debug_info": "1573_batch_matmul",
      "top": "1573_pre_transpose",
      "type": "batch_matmul",
      "name": "1573_batch_matmul",
      "channel_mode": false
    },
    {
      "axis_h": 2,
      "axis_w": 0,
      "bottom": "1573_pre_transpose",
      "axis_k": 1,
      "axis_n": 3,
      "axis_seq": 4,
      "weights": {},
      "debug_info": "1573",
      "top": "1573",
      "type": "transpose",
      "name": "1573"
    },
    {
      "bottom": "1573",
      "alpha": 0.125,
      "operation": 1,
      "weights": {},
      "fused_relu": 0,
      "debug_info": "1575",
      "top": "1575",
      "type": "elementwise",
      "name": "1575",
      "beta": 0
    },
    {
      "axis_h": 2,
      "axis_w": 0,
      "bottom": "1538_5",
      "axis_k": 1,
      "axis_n": 3,
      "axis_seq": 4,
      "weights": {},
      "debug_info": "1577_transpose_x",
      "top": "1538_5_transposed",
      "type": "transpose",
      "name": "1577_transpose_x"
    },
    {
      "axis_h": 2,
      "axis_w": 0,
      "bottom": "1528_5",
      "axis_k": 1,
      "axis_n": 3,
      "axis_seq": 4,
      "weights": {},
      "debug_info": "1577_transpose_y",
      "top": "1528_5_transposed",
      "type": "transpose",
      "name": "1577_transpose_y"
    },
    {
      "bottom": "1538_5_transposed,1528_5_transposed",
      "weights": {},
      "debug_info": "1577_batch_matmul",
      "top": "1577_pre_transpose",
      "type": "batch_matmul",
      "name": "1577_batch_matmul",
      "channel_mode": false
    },
    {
      "axis_h": 2,
      "axis_w": 0,
      "bottom": "1577_pre_transpose",
      "axis_k": 1,
      "axis_n": 3,
      "axis_seq": 4,
      "weights": {},
      "debug_info": "1577",
      "top": "1577",
      "type": "transpose",
      "name": "1577"
    },
    {
      "bottom": "1577",
      "alpha": 0.125,
      "operation": 1,
      "weights": {},
      "fused_relu": 0,
      "debug_info": "1579",
      "top": "1579",
      "type": "elementwise",
      "name": "1579",
      "beta": 0
    },
    {
      "axis_h": 2,
      "axis_w": 0,
      "bottom": "1538_6",
      "axis_k": 1,
      "axis_n": 3,
      "axis_seq": 4,
      "weights": {},
      "debug_info": "1581_transpose_x",
      "top": "1538_6_transposed",
      "type": "transpose",
      "name": "1581_transpose_x"
    },
    {
      "axis_h": 2,
      "axis_w": 0,
      "bottom": "1528_6",
      "axis_k": 1,
      "axis_n": 3,
      "axis_seq": 4,
      "weights": {},
      "debug_info": "1581_transpose_y",
      "top": "1528_6_transposed",
      "type": "transpose",
      "name": "1581_transpose_y"
    },
    {
      "bottom": "1538_6_transposed,1528_6_transposed",
      "weights": {},
      "debug_info": "1581_batch_matmul",
      "top": "1581_pre_transpose",
      "type": "batch_matmul",
      "name": "1581_batch_matmul",
      "channel_mode": false
    },
    {
      "axis_h": 2,
      "axis_w": 0,
      "bottom": "1581_pre_transpose",
      "axis_k": 1,
      "axis_n": 3,
      "axis_seq": 4,
      "weights": {},
      "debug_info": "1581",
      "top": "1581",
      "type": "transpose",
      "name": "1581"
    },
    {
      "bottom": "1581",
      "alpha": 0.125,
      "operation": 1,
      "weights": {},
      "fused_relu": 0,
      "debug_info": "1583",
      "top": "1583",
      "type": "elementwise",
      "name": "1583",
      "beta": 0
    },
    {
      "axis_h": 2,
      "axis_w": 0,
      "bottom": "1538_7",
      "axis_k": 1,
      "axis_n": 3,
      "axis_seq": 4,
      "weights": {},
      "debug_info": "1585_transpose_x",
      "top": "1538_7_transposed",
      "type": "transpose",
      "name": "1585_transpose_x"
    },
    {
      "axis_h": 2,
      "axis_w": 0,
      "bottom": "1528_7",
      "axis_k": 1,
      "axis_n": 3,
      "axis_seq": 4,
      "weights": {},
      "debug_info": "1585_transpose_y",
      "top": "1528_7_transposed",
      "type": "transpose",
      "name": "1585_transpose_y"
    },
    {
      "bottom": "1538_7_transposed,1528_7_transposed",
      "weights": {},
      "debug_info": "1585_batch_matmul",
      "top": "1585_pre_transpose",
      "type": "batch_matmul",
      "name": "1585_batch_matmul",
      "channel_mode": false
    },
    {
      "axis_h": 2,
      "axis_w": 0,
      "bottom": "1585_pre_transpose",
      "axis_k": 1,
      "axis_n": 3,
      "axis_seq": 4,
      "weights": {},
      "debug_info": "1585",
      "top": "1585",
      "type": "transpose",
      "name": "1585"
    },
    {
      "bottom": "1585",
      "alpha": 0.125,
      "operation": 1,
      "weights": {},
      "fused_relu": 0,
      "debug_info": "1587",
      "top": "1587",
      "type": "elementwise",
      "name": "1587",
      "beta": 0
    },
    {
      "bottom": "1559,1563,1567,1571,1575,1579,1583,1587",
      "weights": {},
      "nd_mode": true,
      "axis": 2,
      "debug_info": "attn_weights.1",
      "top": "attn_weights.1",
      "type": "general_concat",
      "name": "attn_weights.1"
    },
    {
      "bottom": "attn_weights.1,qk_mask.1",
      "alpha": 1,
      "operation": 0,
      "weights": {},
      "fused_relu": 0,
      "debug_info": "attn_weights0.1",
      "nd_mode": true,
      "top": "attn_weights0.1",
      "type": "elementwise",
      "name": "attn_weights0.1",
      "beta": 0
    },
    {
      "bottom": "attn_weights0.1",
      "weights": {},
      "debug_info": "input.4",
      "top": "input.4",
      "C": 2,
      "type": "softmax",
      "name": "input.4"
    },
    {
      "begin_104": 0,
      "begin_63": 0,
      "begin_59": 0,
      "begin_64": 0,
      "begin_105": 0,
      "begin_65": 0,
      "begin_0": 0,
      "begin_70": 0,
      "begin_66": 0,
      "begin_106": 0,
      "begin_110": 0,
      "begin_2": 0,
      "begin_71": 0,
      "begin_67": 0,
      "begin_68": 0,
      "begin_107": 0,
      "begin_111": 0,
      "begin_4": 0,
      "begin_72": 0,
      "begin_73": 0,
      "begin_69": 0,
      "begin_6": 0,
      "begin_74": 0,
      "begin_108": 0,
      "type": "split_nd",
      "begin_8": 0,
      "begin_112": 0,
      "begin_75": 0,
      "begin_10": 0,
      "begin_80": 0,
      "begin_76": 0,
      "begin_109": 0,
      "begin_113": 0,
      "begin_11": 0,
      "nd_axis": 2,
      "begin_81": 0,
      "begin_77": 0,
      "begin_114": 0,
      "begin_12": 0,
      "begin_78": 0,
      "begin_82": 0,
      "begin_13": 0,
      "begin_83": 0,
      "begin_79": 0,
      "begin_115": 0,
      "begin_14": 0,
      "begin_84": 0,
      "begin_15": 0,
      "begin_85": 0,
      "num_splits": 8,
      "begin_116": 0,
      "begin_120": 0,
      "begin_20": 0,
      "begin_86": 0,
      "begin_16": 0,
      "begin_90": 0,
      "begin_21": 0,
      "begin_91": 0,
      "begin_87": 0,
      "begin_17": 0,
      "begin_117": 0,
      "begin_121": 0,
      "begin_18": 0,
      "begin_92": 0,
      "begin_88": 0,
      "begin_22": 0,
      "begin_23": 0,
      "begin_89": 0,
      "begin_19": 0,
      "begin_93": 0,
      "begin_118": 0,
      "begin_122": 0,
      "begin_24": 0,
      "begin_94": 0,
      "begin_25": 0,
      "begin_95": 0,
      "begin_119": 0,
      "begin_123": 0,
      "begin_30": 0,
      "begin_26": 0,
      "begin_96": 0,
      "begin_124": 0,
      "begin_31": 0,
      "begin_97": 0,
      "begin_27": 0,
      "begin_28": 0,
      "begin_98": 0,
      "begin_32": 0,
      "begin_125": 0,
      "begin_33": 0,
      "begin_29": 0,
      "begin_99": 0,
      "begin_1": 0,
      "weights": {},
      "begin_34": 0,
      "bottom": "input.4",
      "begin_3": 0,
      "begin_126": 0,
      "begin_35": 0,
      "begin_5": 0,
      "begin_36": 0,
      "begin_40": 0,
      "begin_127": 0,
      "name": "1593",
      "begin_41": 0,
      "begin_37": 0,
      "begin_7": 0,
      "begin_42": 0,
      "begin_38": 0,
      "begin_9": 0,
      "begin_39": 0,
      "begin_43": 0,
      "begin_44": 0,
      "begin_45": 0,
      "begin_50": 0,
      "begin_46": 0,
      "begin_51": 0,
      "begin_47": 0,
      "begin_100": 0,
      "begin_52": 0,
      "debug_info": "1593",
      "begin_48": 0,
      "top": "1593_0,1593_1,1593_2,1593_3,1593_4,1593_5,1593_6,1593_7",
      "begin_101": 0,
      "begin_53": 0,
      "begin_49": 0,
      "begin_54": 0,
      "begin_55": 0,
      "begin_102": 0,
      "begin_60": 0,
      "begin_56": 0,
      "begin_103": 0,
      "begin_57": 0,
      "begin_61": 0,
      "begin_62": 0,
      "begin_58": 0
    },
    {
      "axis_h": 2,
      "axis_w": 0,
      "bottom": "1547_0",
      "axis_k": 1,
      "axis_n": 3,
      "axis_seq": 4,
      "weights": {},
      "debug_info": "1603_transpose_x",
      "top": "1547_0_transposed",
      "type": "transpose",
      "name": "1603_transpose_x"
    },
    {
      "axis_h": 2,
      "axis_w": 0,
      "bottom": "1593_0",
      "axis_k": 1,
      "axis_n": 3,
      "axis_seq": 4,
      "weights": {},
      "debug_info": "1603_transpose_y",
      "top": "1593_0_transposed",
      "type": "transpose",
      "name": "1603_transpose_y"
    },
    {
      "bottom": "1547_0_transposed,1593_0_transposed",
      "weights": {},
      "debug_info": "1603_batch_matmul",
      "top": "1603_pre_transpose",
      "type": "batch_matmul",
      "name": "1603_batch_matmul",
      "channel_mode": false
    },
    {
      "axis_h": 2,
      "axis_w": 0,
      "bottom": "1603_pre_transpose",
      "axis_k": 1,
      "axis_n": 3,
      "axis_seq": 4,
      "weights": {},
      "debug_info": "1603",
      "top": "1603",
      "type": "transpose",
      "name": "1603"
    },
    {
      "axis_h": 2,
      "axis_w": 0,
      "bottom": "1547_1",
      "axis_k": 1,
      "axis_n": 3,
      "axis_seq": 4,
      "weights": {},
      "debug_info": "1605_transpose_x",
      "top": "1547_1_transposed",
      "type": "transpose",
      "name": "1605_transpose_x"
    },
    {
      "axis_h": 2,
      "axis_w": 0,
      "bottom": "1593_1",
      "axis_k": 1,
      "axis_n": 3,
      "axis_seq": 4,
      "weights": {},
      "debug_info": "1605_transpose_y",
      "top": "1593_1_transposed",
      "type": "transpose",
      "name": "1605_transpose_y"
    },
    {
      "bottom": "1547_1_transposed,1593_1_transposed",
      "weights": {},
      "debug_info": "1605_batch_matmul",
      "top": "1605_pre_transpose",
      "type": "batch_matmul",
      "name": "1605_batch_matmul",
      "channel_mode": false
    },
    {
      "axis_h": 2,
      "axis_w": 0,
      "bottom": "1605_pre_transpose",
      "axis_k": 1,
      "axis_n": 3,
      "axis_seq": 4,
      "weights": {},
      "debug_info": "1605",
      "top": "1605",
      "type": "transpose",
      "name": "1605"
    },
    {
      "axis_h": 2,
      "axis_w": 0,
      "bottom": "1547_2",
      "axis_k": 1,
      "axis_n": 3,
      "axis_seq": 4,
      "weights": {},
      "debug_info": "1607_transpose_x",
      "top": "1547_2_transposed",
      "type": "transpose",
      "name": "1607_transpose_x"
    },
    {
      "axis_h": 2,
      "axis_w": 0,
      "bottom": "1593_2",
      "axis_k": 1,
      "axis_n": 3,
      "axis_seq": 4,
      "weights": {},
      "debug_info": "1607_transpose_y",
      "top": "1593_2_transposed",
      "type": "transpose",
      "name": "1607_transpose_y"
    },
    {
      "bottom": "1547_2_transposed,1593_2_transposed",
      "weights": {},
      "debug_info": "1607_batch_matmul",
      "top": "1607_pre_transpose",
      "type": "batch_matmul",
      "name": "1607_batch_matmul",
      "channel_mode": false
    },
    {
      "axis_h": 2,
      "axis_w": 0,
      "bottom": "1607_pre_transpose",
      "axis_k": 1,
      "axis_n": 3,
      "axis_seq": 4,
      "weights": {},
      "debug_info": "1607",
      "top": "1607",
      "type": "transpose",
      "name": "1607"
    },
    {
      "axis_h": 2,
      "axis_w": 0,
      "bottom": "1547_3",
      "axis_k": 1,
      "axis_n": 3,
      "axis_seq": 4,
      "weights": {},
      "debug_info": "1609_transpose_x",
      "top": "1547_3_transposed",
      "type": "transpose",
      "name": "1609_transpose_x"
    },
    {
      "axis_h": 2,
      "axis_w": 0,
      "bottom": "1593_3",
      "axis_k": 1,
      "axis_n": 3,
      "axis_seq": 4,
      "weights": {},
      "debug_info": "1609_transpose_y",
      "top": "1593_3_transposed",
      "type": "transpose",
      "name": "1609_transpose_y"
    },
    {
      "bottom": "1547_3_transposed,1593_3_transposed",
      "weights": {},
      "debug_info": "1609_batch_matmul",
      "top": "1609_pre_transpose",
      "type": "batch_matmul",
      "name": "1609_batch_matmul",
      "channel_mode": false
    },
    {
      "axis_h": 2,
      "axis_w": 0,
      "bottom": "1609_pre_transpose",
      "axis_k": 1,
      "axis_n": 3,
      "axis_seq": 4,
      "weights": {},
      "debug_info": "1609",
      "top": "1609",
      "type": "transpose",
      "name": "1609"
    },
    {
      "axis_h": 2,
      "axis_w": 0,
      "bottom": "1547_4",
      "axis_k": 1,
      "axis_n": 3,
      "axis_seq": 4,
      "weights": {},
      "debug_info": "1611_transpose_x",
      "top": "1547_4_transposed",
      "type": "transpose",
      "name": "1611_transpose_x"
    },
    {
      "axis_h": 2,
      "axis_w": 0,
      "bottom": "1593_4",
      "axis_k": 1,
      "axis_n": 3,
      "axis_seq": 4,
      "weights": {},
      "debug_info": "1611_transpose_y",
      "top": "1593_4_transposed",
      "type": "transpose",
      "name": "1611_transpose_y"
    },
    {
      "bottom": "1547_4_transposed,1593_4_transposed",
      "weights": {},
      "debug_info": "1611_batch_matmul",
      "top": "1611_pre_transpose",
      "type": "batch_matmul",
      "name": "1611_batch_matmul",
      "channel_mode": false
    },
    {
      "axis_h": 2,
      "axis_w": 0,
      "bottom": "1611_pre_transpose",
      "axis_k": 1,
      "axis_n": 3,
      "axis_seq": 4,
      "weights": {},
      "debug_info": "1611",
      "top": "1611",
      "type": "transpose",
      "name": "1611"
    },
    {
      "axis_h": 2,
      "axis_w": 0,
      "bottom": "1547_5",
      "axis_k": 1,
      "axis_n": 3,
      "axis_seq": 4,
      "weights": {},
      "debug_info": "1613_transpose_x",
      "top": "1547_5_transposed",
      "type": "transpose",
      "name": "1613_transpose_x"
    },
    {
      "axis_h": 2,
      "axis_w": 0,
      "bottom": "1593_5",
      "axis_k": 1,
      "axis_n": 3,
      "axis_seq": 4,
      "weights": {},
      "debug_info": "1613_transpose_y",
      "top": "1593_5_transposed",
      "type": "transpose",
      "name": "1613_transpose_y"
    },
    {
      "bottom": "1547_5_transposed,1593_5_transposed",
      "weights": {},
      "debug_info": "1613_batch_matmul",
      "top": "1613_pre_transpose",
      "type": "batch_matmul",
      "name": "1613_batch_matmul",
      "channel_mode": false
    },
    {
      "axis_h": 2,
      "axis_w": 0,
      "bottom": "1613_pre_transpose",
      "axis_k": 1,
      "axis_n": 3,
      "axis_seq": 4,
      "weights": {},
      "debug_info": "1613",
      "top": "1613",
      "type": "transpose",
      "name": "1613"
    },
    {
      "axis_h": 2,
      "axis_w": 0,
      "bottom": "1547_6",
      "axis_k": 1,
      "axis_n": 3,
      "axis_seq": 4,
      "weights": {},
      "debug_info": "1615_transpose_x",
      "top": "1547_6_transposed",
      "type": "transpose",
      "name": "1615_transpose_x"
    },
    {
      "axis_h": 2,
      "axis_w": 0,
      "bottom": "1593_6",
      "axis_k": 1,
      "axis_n": 3,
      "axis_seq": 4,
      "weights": {},
      "debug_info": "1615_transpose_y",
      "top": "1593_6_transposed",
      "type": "transpose",
      "name": "1615_transpose_y"
    },
    {
      "bottom": "1547_6_transposed,1593_6_transposed",
      "weights": {},
      "debug_info": "1615_batch_matmul",
      "top": "1615_pre_transpose",
      "type": "batch_matmul",
      "name": "1615_batch_matmul",
      "channel_mode": false
    },
    {
      "axis_h": 2,
      "axis_w": 0,
      "bottom": "1615_pre_transpose",
      "axis_k": 1,
      "axis_n": 3,
      "axis_seq": 4,
      "weights": {},
      "debug_info": "1615",
      "top": "1615",
      "type": "transpose",
      "name": "1615"
    },
    {
      "axis_h": 2,
      "axis_w": 0,
      "bottom": "1547_7",
      "axis_k": 1,
      "axis_n": 3,
      "axis_seq": 4,
      "weights": {},
      "debug_info": "1617_transpose_x",
      "top": "1547_7_transposed",
      "type": "transpose",
      "name": "1617_transpose_x"
    },
    {
      "axis_h": 2,
      "axis_w": 0,
      "bottom": "1593_7",
      "axis_k": 1,
      "axis_n": 3,
      "axis_seq": 4,
      "weights": {},
      "debug_info": "1617_transpose_y",
      "top": "1593_7_transposed",
      "type": "transpose",
      "name": "1617_transpose_y"
    },
    {
      "bottom": "1547_7_transposed,1593_7_transposed",
      "weights": {},
      "debug_info": "1617_batch_matmul",
      "top": "1617_pre_transpose",
      "type": "batch_matmul",
      "name": "1617_batch_matmul",
      "channel_mode": false
    },
    {
      "axis_h": 2,
      "axis_w": 0,
      "bottom": "1617_pre_transpose",
      "axis_k": 1,
      "axis_n": 3,
      "axis_seq": 4,
      "weights": {},
      "debug_info": "1617",
      "top": "1617",
      "type": "transpose",
      "name": "1617"
    },
    {
      "weights": {},
      "debug_info": "attn.4",
      "top": "attn.4",
      "type": "concat",
      "name": "attn.4",
      "bottom": "1603,1605,1607,1609,1611,1613,1615,1617"
    },
    {
      "pad_r": 0,
      "fused_relu": 0,
      "fused_tanh": 0,
      "debug_info": "",
      "pad_fill_mode": 0,
      "pad_b": 0,
      "pad_l": 0,
      "top": "inputs.4",
      "K": 512,
      "blob_biases": 259,
      "name": "inputs.4",
      "has_batch_norm": 0,
      "type": "convolution",
      "n_groups": 1,
      "pad_t": 0,
      "has_biases": 1,
      "C": 512,
      "bottom": "attn.4",
      "weights": {
        "per_ch_qscale": 261,
        "W_S8": 257,
        "per_ch_qbias": 295
      },
      "Nx": 1,
      "pad_mode": 0,
      "pad_value": 0,
      "Ny": 1,
      "n_parallel": 1
    },
    {
      "axis_mode": 4,
      "bottom": "inputs.4",
      "weights": {},
      "mode": 1,
      "nd_axis": 1,
      "nd_mode": true,
      "debug_info": "channels_mean.4",
      "use_version": 1,
      "top": "channels_mean.4",
      "type": "reduce",
      "name": "channels_mean.4"
    },
    {
      "alpha": -1,
      "bottom": "channels_mean.4",
      "weights": {},
      "mode": 6,
      "debug_info": "_neg_y_zero_mean.4",
      "top": "_neg_y_zero_mean.4",
      "type": "activation",
      "name": "_neg_y_zero_mean.4",
      "beta": 0
    },
    {
      "bottom": "inputs.4,_neg_y_zero_mean.4",
      "alpha": 0.010416666977107525,
      "operation": 0,
      "weights": {},
      "fused_relu": 0,
      "debug_info": "zero_mean.4",
      "top": "zero_mean.4",
      "type": "elementwise",
      "name": "zero_mean.4",
      "beta": 0
    },
    {
      "bottom": "zero_mean.4,zero_mean.4",
      "alpha": 1,
      "operation": 1,
      "weights": {},
      "fused_relu": 0,
      "debug_info": "zero_mean_sq.4",
      "top": "zero_mean_sq.4",
      "type": "elementwise",
      "name": "zero_mean_sq.4",
      "beta": 0
    },
    {
      "axis_mode": 4,
      "bottom": "zero_mean_sq.4",
      "weights": {},
      "mode": 1,
      "nd_axis": 1,
      "nd_mode": true,
      "debug_info": "1640",
      "use_version": 1,
      "top": "1640",
      "type": "reduce",
      "name": "1640"
    },
    {
      "bottom": "1640",
      "alpha": 1.0850693676900391e-09,
      "operation": 0,
      "weights": {},
      "fused_relu": 0,
      "debug_info": "1642",
      "top": "1642",
      "type": "elementwise",
      "name": "1642",
      "beta": 0
    },
    {
      "bottom": "1642",
      "alpha": 1,
      "operation": 12,
      "eps": 9.999999960041972e-13,
      "weights": {},
      "fused_relu": 0,
      "debug_info": "denom.4",
      "top": "denom.4",
      "type": "elementwise",
      "name": "denom.4",
      "beta": 0
    },
    {
      "bottom": "zero_mean.4,denom.4",
      "alpha": 1,
      "operation": 1,
      "weights": {},
      "fused_relu": 0,
      "debug_info": "out.4",
      "top": "out.4",
      "type": "elementwise",
      "name": "out.4",
      "beta": 0
    },
    {
      "top": "1646",
      "w": 1,
      "h": 1,
      "name": "1646",
      "nd_rank": 4,
      "type": "load_constant",
      "k": 512,
      "bottom": "",
      "debug_info": "1646",
      "n": 1,
      "weights": {},
      "constant_blob": 915
    },
    {
      "bottom": "out.4,1646",
      "alpha": 1,
      "operation": 0,
      "weights": {},
      "fused_relu": 0,
      "debug_info": "1647",
      "top": "1647",
      "type": "elementwise",
      "name": "1647",
      "beta": 0
    },
    {
      "top": "1649",
      "w": 1,
      "h": 1,
      "name": "1649",
      "nd_rank": 4,
      "type": "load_constant",
      "k": 512,
      "bottom": "",
      "debug_info": "1649",
      "n": 1,
      "weights": {},
      "constant_blob": 833
    },
    {
      "bottom": "1647,1649",
      "alpha": 1,
      "operation": 1,
      "weights": {},
      "fused_relu": 0,
      "debug_info": "input.6",
      "top": "input.6",
      "type": "elementwise",
      "name": "input.6",
      "beta": 0
    },
    {
      "pad_r": 0,
      "fused_relu": 0,
      "fused_tanh": 0,
      "debug_info": "",
      "pad_fill_mode": 0,
      "pad_b": 0,
      "pad_l": 0,
      "top": "x.5",
      "K": 512,
      "blob_biases": 837,
      "name": "x.5",
      "has_batch_norm": 0,
      "type": "convolution",
      "n_groups": 1,
      "pad_t": 0,
      "has_biases": 1,
      "C": 256,
      "bottom": "input.6",
      "weights": {
        "per_ch_qscale": 839,
        "W_S8": 835,
        "per_ch_qbias": 875
      },
      "Nx": 1,
      "pad_mode": 0,
      "pad_value": 0,
      "Ny": 1,
      "n_parallel": 1
    },
    {
      "bottom": "x.5",
      "alpha": 1.7020000219345093,
      "operation": 1,
      "weights": {},
      "fused_relu": 0,
      "debug_info": "1659",
      "top": "1659",
      "type": "elementwise",
      "name": "1659",
      "beta": 0
    },
    {
      "bottom": "1659",
      "weights": {},
      "mode": 3,
      "debug_info": "1660",
      "top": "1660",
      "type": "activation",
      "name": "1660"
    },
    {
      "bottom": "x.5,1660",
      "alpha": 1,
      "operation": 1,
      "weights": {},
      "fused_relu": 0,
      "debug_info": "input.12",
      "top": "input.12",
      "type": "elementwise",
      "name": "input.12",
      "beta": 0
    },
    {
      "pad_r": 0,
      "fused_relu": 0,
      "fused_tanh": 0,
      "debug_info": "",
      "pad_fill_mode": 0,
      "pad_b": 0,
      "pad_l": 0,
      "top": "x.3",
      "K": 256,
      "blob_biases": 843,
      "name": "x.3",
      "has_batch_norm": 0,
      "type": "convolution",
      "n_groups": 1,
      "pad_t": 0,
      "has_biases": 1,
      "C": 512,
      "bottom": "input.12",
      "weights": {
        "per_ch_qscale": 845,
        "W_S8": 841,
        "per_ch_qbias": 295
      },
      "Nx": 1,
      "pad_mode": 0,
      "pad_value": 0,
      "Ny": 1,
      "n_parallel": 1
    },
    {
      "bottom": "x.3,inputs.4",
      "alpha": 1,
      "operation": 0,
      "weights": {},
      "fused_relu": 0,
      "debug_info": "attn.1",
      "top": "attn.1",
      "type": "elementwise",
      "name": "attn.1",
      "beta": 0
    },
    {
      "bottom": "inputs3.1,attn.1",
      "alpha": 1,
      "operation": 0,
      "weights": {},
      "fused_relu": 0,
      "debug_info": "inputs0.1",
      "top": "inputs0.1",
      "type": "elementwise",
      "name": "inputs0.1",
      "beta": 0
    },
    {
      "axis_mode": 4,
      "bottom": "inputs0.1",
      "weights": {},
      "mode": 1,
      "nd_axis": 1,
      "nd_mode": true,
      "debug_info": "channels_mean.6",
      "use_version": 1,
      "top": "channels_mean.6",
      "type": "reduce",
      "name": "channels_mean.6"
    },
    {
      "alpha": -1,
      "bottom": "channels_mean.6",
      "weights": {},
      "mode": 6,
      "debug_info": "_neg_y_zero_mean.6",
      "top": "_neg_y_zero_mean.6",
      "type": "activation",
      "name": "_neg_y_zero_mean.6",
      "beta": 0
    },
    {
      "bottom": "inputs0.1,_neg_y_zero_mean.6",
      "alpha": 0.010416666977107525,
      "operation": 0,
      "weights": {},
      "fused_relu": 0,
      "debug_info": "zero_mean.6",
      "top": "zero_mean.6",
      "type": "elementwise",
      "name": "zero_mean.6",
      "beta": 0
    },
    {
      "bottom": "zero_mean.6,zero_mean.6",
      "alpha": 1,
      "operation": 1,
      "weights": {},
      "fused_relu": 0,
      "debug_info": "zero_mean_sq.6",
      "top": "zero_mean_sq.6",
      "type": "elementwise",
      "name": "zero_mean_sq.6",
      "beta": 0
    },
    {
      "axis_mode": 4,
      "bottom": "zero_mean_sq.6",
      "weights": {},
      "mode": 1,
      "nd_axis": 1,
      "nd_mode": true,
      "debug_info": "1678",
      "use_version": 1,
      "top": "1678",
      "type": "reduce",
      "name": "1678"
    },
    {
      "bottom": "1678",
      "alpha": 1.0850693676900391e-09,
      "operation": 0,
      "weights": {},
      "fused_relu": 0,
      "debug_info": "1680",
      "top": "1680",
      "type": "elementwise",
      "name": "1680",
      "beta": 0
    },
    {
      "bottom": "1680",
      "alpha": 1,
      "operation": 12,
      "eps": 9.999999960041972e-13,
      "weights": {},
      "fused_relu": 0,
      "debug_info": "denom.6",
      "top": "denom.6",
      "type": "elementwise",
      "name": "denom.6",
      "beta": 0
    },
    {
      "bottom": "zero_mean.6,denom.6",
      "alpha": 1,
      "operation": 1,
      "weights": {},
      "fused_relu": 0,
      "debug_info": "out.6",
      "top": "out.6",
      "type": "elementwise",
      "name": "out.6",
      "beta": 0
    },
    {
      "top": "1684",
      "w": 1,
      "h": 1,
      "name": "1684",
      "nd_rank": 4,
      "type": "load_constant",
      "k": 512,
      "bottom": "",
      "debug_info": "1684",
      "n": 1,
      "weights": {},
      "constant_blob": 917
    },
    {
      "bottom": "out.6,1684",
      "alpha": 1,
      "operation": 0,
      "weights": {},
      "fused_relu": 0,
      "debug_info": "1685",
      "top": "1685",
      "type": "elementwise",
      "name": "1685",
      "beta": 0
    },
    {
      "top": "1687",
      "w": 1,
      "h": 1,
      "name": "1687",
      "nd_rank": 4,
      "type": "load_constant",
      "k": 512,
      "bottom": "",
      "debug_info": "1687",
      "n": 1,
      "weights": {},
      "constant_blob": 849
    },
    {
      "bottom": "1685,1687",
      "alpha": 1,
      "operation": 1,
      "weights": {},
      "fused_relu": 0,
      "debug_info": "input.8",
      "top": "input.8",
      "type": "elementwise",
      "name": "input.8",
      "beta": 0
    },
    {
      "pad_r": 0,
      "fused_relu": 0,
      "fused_tanh": 0,
      "debug_info": "",
      "pad_fill_mode": 0,
      "pad_b": 0,
      "pad_l": 0,
      "top": "x.7",
      "K": 512,
      "blob_biases": 269,
      "name": "x.7",
      "has_batch_norm": 0,
      "type": "convolution",
      "n_groups": 1,
      "pad_t": 0,
      "has_biases": 1,
      "C": 2048,
      "bottom": "input.8",
      "weights": {
        "per_ch_qscale": 271,
        "W_S8": 267,
        "per_ch_qbias": 299
      },
      "Nx": 1,
      "pad_mode": 0,
      "pad_value": 0,
      "Ny": 1,
      "n_parallel": 1
    },
    {
      "bottom": "x.7",
      "alpha": 1.7020000219345093,
      "operation": 1,
      "weights": {},
      "fused_relu": 0,
      "debug_info": "1699",
      "top": "1699",
      "type": "elementwise",
      "name": "1699",
      "beta": 0
    },
    {
      "bottom": "1699",
      "weights": {},
      "mode": 3,
      "debug_info": "1700",
      "top": "1700",
      "type": "activation",
      "name": "1700"
    },
    {
      "bottom": "x.7,1700",
      "alpha": 1,
      "operation": 1,
      "weights": {},
      "fused_relu": 0,
      "debug_info": "input.10",
      "top": "input.10",
      "type": "elementwise",
      "name": "input.10",
      "beta": 0
    },
    {
      "pad_r": 0,
      "fused_relu": 0,
      "fused_tanh": 0,
      "debug_info": "",
      "pad_fill_mode": 0,
      "pad_b": 0,
      "pad_l": 0,
      "top": "input0.1",
      "K": 2048,
      "blob_biases": 275,
      "name": "input0.1",
      "has_batch_norm": 0,
      "type": "convolution",
      "n_groups": 1,
      "pad_t": 0,
      "has_biases": 1,
      "C": 512,
      "bottom": "input.10",
      "weights": {
        "per_ch_qscale": 277,
        "W_S8": 273,
        "per_ch_qbias": 295
      },
      "Nx": 1,
      "pad_mode": 0,
      "pad_value": 0,
      "Ny": 1,
      "n_parallel": 1
    },
    {
      "axis_mode": 4,
      "bottom": "input0.1",
      "weights": {},
      "mode": 1,
      "nd_axis": 1,
      "nd_mode": true,
      "debug_info": "channels_mean.43",
      "use_version": 1,
      "top": "channels_mean.43",
      "type": "reduce",
      "name": "channels_mean.43"
    },
    {
      "alpha": -1,
      "bottom": "channels_mean.43",
      "weights": {},
      "mode": 6,
      "debug_info": "_neg_y_zero_mean.43",
      "top": "_neg_y_zero_mean.43",
      "type": "activation",
      "name": "_neg_y_zero_mean.43",
      "beta": 0
    },
    {
      "bottom": "input0.1,_neg_y_zero_mean.43",
      "alpha": 0.010416666977107525,
      "operation": 0,
      "weights": {},
      "fused_relu": 0,
      "debug_info": "zero_mean.43",
      "top": "zero_mean.43",
      "type": "elementwise",
      "name": "zero_mean.43",
      "beta": 0
    },
    {
      "bottom": "zero_mean.43,zero_mean.43",
      "alpha": 1,
      "operation": 1,
      "weights": {},
      "fused_relu": 0,
      "debug_info": "zero_mean_sq.43",
      "top": "zero_mean_sq.43",
      "type": "elementwise",
      "name": "zero_mean_sq.43",
      "beta": 0
    },
    {
      "axis_mode": 4,
      "bottom": "zero_mean_sq.43",
      "weights": {},
      "mode": 1,
      "nd_axis": 1,
      "nd_mode": true,
      "debug_info": "1720",
      "use_version": 1,
      "top": "1720",
      "type": "reduce",
      "name": "1720"
    },
    {
      "bottom": "1720",
      "alpha": 1.0850693676900391e-09,
      "operation": 0,
      "weights": {},
      "fused_relu": 0,
      "debug_info": "1722",
      "top": "1722",
      "type": "elementwise",
      "name": "1722",
      "beta": 0
    },
    {
      "bottom": "1722",
      "alpha": 1,
      "operation": 12,
      "eps": 9.999999960041972e-13,
      "weights": {},
      "fused_relu": 0,
      "debug_info": "denom.43",
      "top": "denom.43",
      "type": "elementwise",
      "name": "denom.43",
      "beta": 0
    },
    {
      "bottom": "zero_mean.43,denom.43",
      "alpha": 1,
      "operation": 1,
      "weights": {},
      "fused_relu": 0,
      "debug_info": "out.43",
      "top": "out.43",
      "type": "elementwise",
      "name": "out.43",
      "beta": 0
    },
    {
      "top": "1726",
      "w": 1,
      "h": 1,
      "name": "1726",
      "nd_rank": 4,
      "type": "load_constant",
      "k": 512,
      "bottom": "",
      "debug_info": "1726",
      "n": 1,
      "weights": {},
      "constant_blob": 919
    },
    {
      "bottom": "out.43,1726",
      "alpha": 1,
      "operation": 0,
      "weights": {},
      "fused_relu": 0,
      "debug_info": "1727",
      "top": "1727",
      "type": "elementwise",
      "name": "1727",
      "beta": 0
    },
    {
      "top": "1729",
      "w": 1,
      "h": 1,
      "name": "1729",
      "nd_rank": 4,
      "type": "load_constant",
      "k": 512,
      "bottom": "",
      "debug_info": "1729",
      "n": 1,
      "weights": {},
      "constant_blob": 853
    },
    {
      "bottom": "1727,1729",
      "alpha": 1,
      "operation": 1,
      "weights": {},
      "fused_relu": 0,
      "debug_info": "input.1",
      "top": "input.1",
      "type": "elementwise",
      "name": "input.1",
      "beta": 0
    },
    {
      "pad_r": 0,
      "fused_relu": 0,
      "fused_tanh": 0,
      "debug_info": "",
      "pad_fill_mode": 0,
      "pad_b": 0,
      "pad_l": 0,
      "top": "x.2",
      "K": 512,
      "blob_biases": 857,
      "name": "x.2",
      "has_batch_norm": 0,
      "type": "convolution",
      "n_groups": 1,
      "pad_t": 0,
      "has_biases": 1,
      "C": 256,
      "bottom": "input.1",
      "weights": {
        "per_ch_qscale": 859,
        "W_S8": 855,
        "per_ch_qbias": 875
      },
      "Nx": 1,
      "pad_mode": 0,
      "pad_value": 0,
      "Ny": 1,
      "n_parallel": 1
    },
    {
      "bottom": "x.2",
      "alpha": 1.7020000219345093,
      "operation": 1,
      "weights": {},
      "fused_relu": 0,
      "debug_info": "1739",
      "top": "1739",
      "type": "elementwise",
      "name": "1739",
      "beta": 0
    },
    {
      "bottom": "1739",
      "weights": {},
      "mode": 3,
      "debug_info": "1740",
      "top": "1740",
      "type": "activation",
      "name": "1740"
    },
    {
      "bottom": "x.2,1740",
      "alpha": 1,
      "operation": 1,
      "weights": {},
      "fused_relu": 0,
      "debug_info": "input.2",
      "top": "input.2",
      "type": "elementwise",
      "name": "input.2",
      "beta": 0
    },
    {
      "pad_r": 0,
      "fused_relu": 0,
      "fused_tanh": 0,
      "debug_info": "",
      "pad_fill_mode": 0,
      "pad_b": 0,
      "pad_l": 0,
      "top": "x.1",
      "K": 256,
      "blob_biases": 863,
      "name": "x.1",
      "has_batch_norm": 0,
      "type": "convolution",
      "n_groups": 1,
      "pad_t": 0,
      "has_biases": 1,
      "C": 512,
      "bottom": "input.2",
      "weights": {
        "per_ch_qscale": 865,
        "W_S8": 861,
        "per_ch_qbias": 295
      },
      "Nx": 1,
      "pad_mode": 0,
      "pad_value": 0,
      "Ny": 1,
      "n_parallel": 1
    },
    {
      "bottom": "x.1,input0.1",
      "alpha": 1,
      "operation": 0,
      "weights": {},
      "fused_relu": 0,
      "debug_info": "f.1",
      "top": "f.1",
      "type": "elementwise",
      "name": "f.1",
      "beta": 0
    },
    {
      "bottom": "f.1,inputs0.1",
      "alpha": 1,
      "operation": 0,
      "weights": {},
      "fused_relu": 0,
      "debug_info": "x1.1",
      "top": "x1.1",
      "type": "elementwise",
      "name": "x1.1",
      "beta": 0
    },
    {
      "bottom": "inputs3.1",
      "alpha": 0,
      "operation": 1,
      "weights": {},
      "fused_relu": 0,
      "debug_info": "1752",
      "top": "1752",
      "type": "elementwise",
      "name": "1752",
      "beta": 0
    },
    {
      "bottom": "1752,x1.1",
      "alpha": 1,
      "operation": 0,
      "weights": {},
      "fused_relu": 0,
      "debug_info": "inputs4.1",
      "top": "inputs4.1",
      "type": "elementwise",
      "name": "inputs4.1",
      "beta": 0
    },
    {
      "axis_mode": 4,
      "bottom": "inputs4.1",
      "weights": {},
      "mode": 1,
      "nd_axis": 1,
      "nd_mode": true,
      "debug_info": "channels_mean.1",
      "use_version": 1,
      "top": "channels_mean.1",
      "type": "reduce",
      "name": "channels_mean.1"
    },
    {
      "alpha": -1,
      "bottom": "channels_mean.1",
      "weights": {},
      "mode": 6,
      "debug_info": "_neg_y_zero_mean.1",
      "top": "_neg_y_zero_mean.1",
      "type": "activation",
      "name": "_neg_y_zero_mean.1",
      "beta": 0
    },
    {
      "bottom": "inputs4.1,_neg_y_zero_mean.1",
      "alpha": 0.010416666977107525,
      "operation": 0,
      "weights": {},
      "fused_relu": 0,
      "debug_info": "zero_mean.1",
      "top": "zero_mean.1",
      "type": "elementwise",
      "name": "zero_mean.1",
      "beta": 0
    },
    {
      "bottom": "zero_mean.1,zero_mean.1",
      "alpha": 1,
      "operation": 1,
      "weights": {},
      "fused_relu": 0,
      "debug_info": "zero_mean_sq.1",
      "top": "zero_mean_sq.1",
      "type": "elementwise",
      "name": "zero_mean_sq.1",
      "beta": 0
    },
    {
      "axis_mode": 4,
      "bottom": "zero_mean_sq.1",
      "weights": {},
      "mode": 1,
      "nd_axis": 1,
      "nd_mode": true,
      "debug_info": "1763",
      "use_version": 1,
      "top": "1763",
      "type": "reduce",
      "name": "1763"
    },
    {
      "bottom": "1763",
      "alpha": 1.0850693676900391e-09,
      "operation": 0,
      "weights": {},
      "fused_relu": 0,
      "debug_info": "1765",
      "top": "1765",
      "type": "elementwise",
      "name": "1765",
      "beta": 0
    },
    {
      "bottom": "1765",
      "alpha": 1,
      "operation": 12,
      "eps": 9.999999960041972e-13,
      "weights": {},
      "fused_relu": 0,
      "debug_info": "denom.1",
      "top": "denom.1",
      "type": "elementwise",
      "name": "denom.1",
      "beta": 0
    },
    {
      "bottom": "zero_mean.1,denom.1",
      "alpha": 1,
      "operation": 1,
      "weights": {},
      "fused_relu": 0,
      "debug_info": "out.1",
      "top": "out.1",
      "type": "elementwise",
      "name": "out.1",
      "beta": 0
    },
    {
      "top": "1769",
      "w": 1,
      "h": 1,
      "name": "1769",
      "nd_rank": 4,
      "type": "load_constant",
      "k": 512,
      "bottom": "",
      "debug_info": "1769",
      "n": 1,
      "weights": {},
      "constant_blob": 921
    },
    {
      "bottom": "out.1,1769",
      "alpha": 1,
      "operation": 0,
      "weights": {},
      "fused_relu": 0,
      "debug_info": "1770",
      "top": "1770",
      "type": "elementwise",
      "name": "1770",
      "beta": 0
    },
    {
      "top": "1772",
      "w": 1,
      "h": 1,
      "name": "1772",
      "nd_rank": 4,
      "type": "load_constant",
      "k": 512,
      "bottom": "",
      "debug_info": "1772",
      "n": 1,
      "weights": {},
      "constant_blob": 869
    },
    {
      "bottom": "1770,1772",
      "alpha": 1,
      "operation": 1,
      "weights": {},
      "fused_relu": 0,
      "debug_info": "embeddings.1",
      "top": "embeddings.1",
      "type": "elementwise",
      "name": "embeddings.1",
      "beta": 0
    },
    {
      "axis_seq": 4,
      "name": "transpose_0",
      "axis_n": 3,
      "axis_h": 1,
      "type": "transpose",
      "attributes": {
        "is_output": 1
      },
      "bottom": "embeddings.1",
      "axis_w": 2,
      "axis_k": 0,
      "debug_info": "transpose_0",
      "weights": {},
      "top": "embedding_out"
    }
  ]
}